src/dgl_graphsage/170k_model.pt (torch, 5463 bytes, 6 tensors)

bias f4 [10]
000000 dd f9 75 bd 37 0c 43 3e e7 90 4b bd ca 64 ba 3e
       -0.06005274 0.19047628 -0.049698737 0.3640502
000010 ce 3b 3c bd 1c 4d 7c bd 47 95 96 bd 86 bc e2 3e
       -0.04595547 -0.061596975 -0.07352691 0.44284457
000020 cb 0e 76 bd 3e 19 5b bd
       -0.0600727 -0.05349087

weight f4 [10, 14]
000000 40 43 e9 be a0 e4 9d be b2 b4 c0 bc fb f2 c1 3e
       -0.4555912 -0.3083849 -0.023523662 0.37880692
000010 4c 8f fd 3e 9c 3c 0d be 79 cb 3f bf cb 2f 16 bf
       0.4952339 -0.13792652 -0.7491985 -0.58666676
000020 b3 df 95 3e 79 c0 df bd be 7e 88 be d4 f1 dd 3e
       0.2927223 -0.10925383 -0.26659197 0.43348563
000030 c4 d0 fb be ae 4c 92 be 5e b9 cb bb e0 11 53 3e
       -0.49182713 -0.28574127 -0.006217166 0.20612288
000040 a5 45 63 3f 84 04 cd 3e 7d 62 ac 3f d5 8d b1 be
       0.88778144 0.40042508 1.3467556 -0.34678522
000050 a3 7b ab be ea f4 23 bf 5f 26 f2 bf c5 fe bb 3e
       -0.33492765 -0.64045584 -1.891796 0.3671781
000060 6a 2b 6f bd fd 6b 3f 3e 7e fc 4b 3f 0c 6c d8 3f
       -0.058391012 0.18693538 0.7968215 1.6907973
000070 29 8f 20 bf b0 ed 9b 3e 2c ed 1b 3e 19 12 07 3f
       -0.62718445 0.3045478 0.15227193 0.5276199
000080 cf f4 e2 be 95 85 ab 3d b4 18 08 bf 75 ac 9e be
       -0.443274 0.08375088 -0.53162694 -0.3099095
000090 5c ad 15 3e 0f f7 02 bf 65 51 2b 3d bc 7e d5 3e
       0.14616913 -0.5115823 0.04182567 0.41698253
0000a0 30 64 84 be a8 f7 f0 bd 44 7c e7 be ab f3 bd 3e
       -0.25857687 -0.11765987 -0.45211995 0.37099966
0000b0 4f ac fc 3e bd c3 27 3f 0f e2 34 bf d8 93 46 3d
       0.4935021 0.6553305 -0.7065744 0.04848084
0000c0 87 be b3 3f 87 a4 4d 3f ac 91 b9 3f 02 50 81 3e
       1.4042519 0.80329174 1.449758 0.25256354
0000d0 e1 62 47 3f bd c0 13 3f 9d ac fb 3e b2 51 3d bf
       0.7788525 0.5771597 0.4915513 -0.7395278
0000e0 43 2f b0 be 66 d2 1b 3c 98 d5 a7 bd f2 85 99 bd
       -0.34411058 0.009510612 -0.08195037 -0.07496251
0000f0 d4 37 19 3e e6 33 1c bd f2 ec 19 bf 46 27 1d bf
       0.14962703 -0.03813543 -0.60127175 -0.6138805
000100 c6 21 8f 3e fd d8 6b be d3 51 93 bd c8 6a 5e 3e
       0.27955455 -0.23031993 -0.07193341 0.21720421
000110 a5 01 d9 3d 66 ea 25 3e 49 72 aa be 0c f7 16 3f
       0.10596017 0.16202697 -0.33290318 0.58970714
000120 14 60 a6 bd 22 be 7c be 15 e4 24 3f 00 f4 15 bf
       -0.08123794 -0.24681905 0.64410526 -0.5857544
000130 f8 0e e7 3d be a8 14 bf d4 00 cb be e8 2e 18 bf
       0.11282152 -0.5806998 -0.3964907 -0.59446573
000140 a1 f9 ca be 9a 82 b2 be 08 63 ef 3e 9a dd 89 3e
       -0.39643577 -0.34865266 0.46755242 0.2692688
000150 8d 8c 13 3f 7f e6 ec be 79 fa af 3e f0 b3 a2 be
       0.5763634 -0.46269605 0.34370783 -0.31777906
000160 57 a9 4c bd a0 28 fb 3e 0d 45 19 bf e0 c0 11 bf
       -0.049966183 0.49054432 -0.5987099 -0.5693493
000170 a3 80 4c be d1 e3 34 3e 6c cc c8 be 1e b0 f9 3e
       -0.19970946 0.1766503 -0.39218462 0.4876718
000180 c9 d7 70 bd 33 1b 8d 3e 7f 6b 82 3f 3f 39 7f 3f
       -0.05879954 0.27559814 1.0189055 0.99696726
000190 c1 2b 54 3f ae 7f ae 3d b8 a8 33 3e d9 28 05 3f
       0.82879263 0.08520447 0.1754483 0.52015454
0001a0 05 73 37 3f 48 c0 8e bf 74 a3 26 3e 2e 8d 8a 3f
       0.7165988 -1.115243 0.1627329 1.0824335
0001b0 bc 0e 70 be 0a a6 28 3f 08 55 0d 3f 9d e6 ae 3f
       -0.2344312 0.65878356 0.5520787 1.3664128
0001c0 38 e2 81 be bf 4f 51 3e 23 b2 77 3e 04 8b 30 bf
       -0.25367904 0.20440577 0.24189048 -0.6896212
0001d0 c3 f4 af 3d 0e 00 15 3d f1 6c 49 3e ac f9 f0 3e
       0.085916065 0.036377005 0.19670464 0.47065485
0001e0 da 4c ea be 20 a8 22 3f e5 cf d9 be 97 32 0b 3f
       -0.45761758 0.6353779 -0.42541423 0.5437407
0001f0 5e e8 a5 3d 5f 0c 9c bd f4 c6 04 bf 92 19 9f bd
       0.08100961 -0.07619547 -0.5186608 -0.07768549
000200 47 d1 11 bf 7a dd fd bd 3f ed 8a be 22 49 b2 be
       -0.56959957 -0.12395759 -0.2713413 -0.3482142
000210 e3 25 f2 bd 7e 79 80 be ed eb 10 bf 9f da 9d 3c
       -0.118236326 -0.2509269 -0.56609994 0.019269286
000220 d6 36 80 bd 2c da d1 be e3 2f 30 be c0 50 91 3e
       -0.06260459 -0.40986764 -0.17205767 0.2838192

weight f4 [10, 14]
000000 ee 23 8e 3e 66 5d 42 be 62 3d fd be 47 31 30 bf
       0.27761787 -0.18980941 -0.49460894 -0.6882519
000010 1a 28 e0 be b4 b9 df 3e 47 70 f7 3e 90 61 8a be
       -0.43780595 0.43696368 0.48327848 -0.2702756
000020 82 72 38 bf 1a 01 f2 3d d4 6c d7 be 48 52 8b 3e
       -0.72049725 0.11816616 -0.42075217 0.27211213
000030 ab 97 d1 3e 56 66 3f bf 50 64 f5 bb c1 92 b6 3d
       0.40936026 -0.7476553 -0.007488765 0.0891471
000040 70 0e eb be 33 dc de 3e bc 3f 06 3e 3d 0a 0c be
       -0.45909452 0.43527374 0.1311025 -0.1367578
000050 9d 84 67 3d 53 8d 82 bf 2e ca 87 bf fa d9 15 bf
       0.056522954 -1.0199379 -1.0608575 -0.5853573
000060 0f c0 51 be 7c 23 85 be 9d b5 c1 3e d1 9b ad 3f
       -0.20483421 -0.26003635 0.37833872 1.3563176
000070 72 55 32 be be e5 3c bf e3 f7 fe bd d9 9f 99 be
       -0.17415407 -0.7378806 -0.124496244 -0.30004767
000080 ee 6a 8b 3e c9 0e 28 3e 58 81 ed be e9 fc 15 bf
       0.27230018 0.1641189 -0.46387744 -0.58589035
000090 1e d5 8d be f4 1d 8d be f6 fb 4c 3c f1 8d ad be
       -0.27701658 -0.27561915 0.012511244 -0.33897355
0000a0 f1 73 c0 be 26 38 f1 3e 01 14 71 be d6 fc 7e bf
       -0.37588456 0.4711315 -0.23542787 -0.9960455
0000b0 a7 9f a1 bf be 50 ad bf 5d bf d5 3e 05 ff bf be
       -1.2626847 -1.3540266 0.4174756 -0.37499252
0000c0 88 42 f5 be bf 69 7e bf 5d b7 3e 3f 0c bb 32 bd
       -0.47902322 -0.99380106 0.7449854 -0.043635413
0000d0 bd ab 59 bf f1 d3 27 be eb c3 75 bf c7 43 b9 bf
       -0.85027677 -0.16389443 -0.9600207 -1.4473809
0000e0 e5 a5 e1 3e bb f1 81 be ee fc a3 be 39 74 32 bf
       0.4407188 -0.25379738 -0.32028908 -0.6970859
0000f0 eb 7f 86 3e 40 40 b2 3e f8 47 27 3e b3 0d 0e bf
       0.2626947 0.34814644 0.16336048 -0.55489653
000100 a9 12 c2 3d 11 75 8f 3e 0a d5 fe be f4 db c7 bd
       0.094762154 0.28019002 -0.4977191 -0.097587496
000110 44 df 30 be 74 42 1d bf 81 06 11 be 58 71 a4 bd
       -0.17272669 -0.61429524 -0.14162637 -0.08029431
000120 94 9c cc 3e c4 18 78 3e 3b eb 66 3e 5b dd 0d 3f
       0.3996321 0.24228197 0.22550671 0.55415887
000130 a0 ec a9 3b c0 34 94 be 1d 8d 11 bf be de 0f bf
       0.0051856786 -0.28946495 -0.56855947 -0.5619925
000140 d5 3d 03 3e 22 a1 b7 3e 8b 8d a1 3e af 3b d0 bd
       0.12816556 0.35865122 0.315533 -0.10167634
000150 3c 10 ba be 54 65 d7 3d 1c 7f 0f 3f b0 5d a2 3e
       -0.3634051 0.10517374 0.5605333 0.31712103
000160 1f 63 3c 3f c2 b7 0d 3d 0f 30 6d 3d b6 03 da 3e
       0.73588747 0.034599073 0.05790716 0.42580956
000170 91 f8 62 3d 88 03 5a 3c a2 a0 15 3f c2 ac f4 bd
       0.055412833 0.013306506 0.5844823 -0.119470134
000180 2d 54 0a 3f 01 13 46 3d 7c 69 14 bf cc 2f 25 bf
       0.5403469 0.048357967 -0.57973456 -0.6452606
000190 b7 eb e8 be 1e b2 e5 3d c6 80 9a 3f d5 b4 b2 be
       -0.45492336 0.11215614 1.2070549 -0.3490359
0001a0 6e c4 03 3f 2c c4 21 bf a6 e2 ee bf 3f 28 8e be
       0.514716 -0.6318996 -1.8662918 -0.2776508
0001b0 01 6c 8c bf 7f 71 82 3b 39 a3 08 bf 21 ea 92 3d
       -1.097046 0.003980815 -0.5337406 0.07173563
0001c0 a1 25 24 3f 0d 8d 83 be 43 a7 94 be 50 27 ef 3e
       0.6411992 -0.2569355 -0.2903386 0.4670968
0001d0 46 b7 f2 3e de 88 96 be 3d 7e 95 3e 39 b0 54 be
       0.47405452 -0.29401296 0.29197875 -0.20770349
0001e0 14 7d d2 3d b3 2b 8b be 63 96 a6 bd db b3 d6 3d
       0.10277763 -0.27181777 -0.08134153 0.104835235
0001f0 1d 40 c7 be d4 a5 8a be cf 83 15 bf e0 71 d1 be
       -0.38916102 -0.27079642 -0.5840425 -0.40907192
000200 c9 20 78 bc 0e 0a 74 be fa e7 ff 3e a2 da 2b be
       -0.015144535 -0.2383196 0.49981672 -0.1678262
000210 cb 90 58 be 0f 15 eb 3e 92 97 f3 3b dd ce e5 3e
       -0.21148984 0.45914504 0.00743384 0.44884387
000220 4b e0 d7 be ba 66 a6 3e dc 99 ff 3d 37 ca 09 bf
       -0.4216331 0.3250025 0.12480518 -0.5382418

bias f4 [10]
000000 a8 48 5c 3e fe 54 04 3e f1 0e 69 be 19 e3 80 bd
       0.21512091 0.12923047 -0.22759606 -0.062933154
000010 52 67 18 be 72 46 0a be 60 38 aa 3e ff 8f 70 3e
       -0.14883164 -0.13503435 0.33246136 0.2349243
000020 09 b0 06 3e 2f ce 9f 3e
       0.1315309 0.31211993

weight f4 [10, 10]
000000 3f 5b 1b be e3 0d 33 be d7 c3 f4 bc 15 12 82 3f
       -0.15171526 -0.17485766 -0.02987854 1.0161768
000010 c6 dd dc be 62 6e 16 3e 4f ca 1e bf d4 d0 46 3f
       -0.4313795 0.14690545 -0.6202745 0.77662396
000020 fa 15 45 bf 24 7e 2b bf f2 d4 b1 be 27 3f 11 bf
       -0.7698666 -0.6698935 -0.34732777 -0.5673699
000030 43 55 fe be 4c a0 1a 3d e5 a7 e6 be 0c 7c 50 be
       -0.49674425 0.037750527 -0.45049968 -0.2035982
000040 c1 60 05 be 03 f0 41 3f 54 5f 1d 3f 40 7d 00 3f
       -0.1302519 0.75756854 0.61473584 0.50191116
000050 00 a5 41 bc 78 08 ec be 71 5f 22 bf ee 0b a2 3e
       -0.011819124 -0.4610021 -0.6342688 0.31649727
000060 fc 6a 03 bf ad 32 98 3e 04 71 58 be 44 e9 6e bf
       -0.5133512 0.29726163 -0.21136862 -0.93324685
000070 78 f9 17 3f dc 44 cd 3e fb f3 8d be ec 40 fb 3e
       0.59365034 0.40091598 -0.27725205 0.4907297
000080 54 e7 2b 3f 75 b7 8c 3e e6 33 24 bf a4 21 f4 bd
       0.67149854 0.27483717 -0.6414169 -0.11920479
000090 28 1a ab be 5e 24 fd bd d9 90 07 3c db 54 0d 3f
       -0.33418393 -0.12360452 0.0082742805 0.55207604
0000a0 bc 26 4a 3f bf 84 1d bf b8 4c f5 bc 87 b1 32 bf
       0.78965354 -0.6153068 -0.029943809 -0.69802135
0000b0 d1 e8 ed be c6 d6 78 3e 49 09 87 bd 2b d2 dd 3e
       -0.46466687 0.2430068 -0.06593568 0.43324408
0000c0 35 11 8e be 60 97 b8 be 9c db 3c 3f 65 0a a8 bd
       -0.27747503 -0.3605299 0.737726 -0.082051076
0000d0 52 55 3c 3f 95 f5 b0 bd 70 02 1d 3f 2b ed 25 bf
       0.7356769 -0.08640591 0.61331844 -0.64815015
0000e0 a1 c3 0d bf da b3 64 3e 4e 72 81 3d f8 04 e8 3e
       -0.5537663 0.22334233 0.0632063 0.4531629
0000f0 c4 b1 a0 be 3e a0 a0 be b7 c3 ad be 3f ba 31 3f
       -0.31385624 -0.31372255 -0.3393838 0.69424814
000100 a2 59 d7 be eb f2 93 3e 1b 72 6d be 87 1f 02 3f
       -0.42060572 0.2889627 -0.23188059 0.50829357
000110 c3 40 52 3f ac c7 32 be 22 94 25 bf 6f 41 e4 3c
       0.8213007 -0.17458981 -0.6467916 0.027863232
000120 49 c4 03 bf ea 1e 66 3f ca c1 ac 3e b6 b9 28 3d
       -0.5147138 0.8989092 0.337416 0.041192733
000130 af 69 cc be 0f fa 23 3f 49 a1 dc 3c 5d fe 64 be
       -0.3992438 0.64053434 0.026932376 -0.22362657
000140 21 34 2e 3f f3 62 87 bb 5c 3d 26 3f 71 3d e4 bd
       0.6804829 -0.0041316687 0.64937377 -0.111445315
000150 fc f6 df 3c b1 c3 27 3f 91 bb 24 3f 13 84 6b be
       0.027339451 0.65532976 0.64348704 -0.22999601
000160 8b 3d 53 3e 81 8d a0 3e 9f 93 9b 3e 81 5e 96 be
       0.20628946 0.3135796 0.30386063 -0.29368976
000170 4a ea 00 bf 30 11 2d 3f fd b8 d7 be 6c 5d 59 3d
       -0.50357497 0.6760435 -0.42133322 0.05306761
000180 6f 8c f0 3e ca fe 0c 3f d9 db b4 3e ba 45 8e bd
       0.46982142 0.5507628 0.3532398 -0.06946893

weight f4 [10, 10]
000000 15 69 2d 3f c6 4b 53 bf 58 8f 05 bf 44 c2 b8 be
       0.6773847 -0.82537496 -0.5217185 -0.36085713
000010 7e be 09 bf 06 b0 f7 be c1 bf e6 be 11 9e 74 bf
       -0.53806293 -0.48376483 -0.45068172 -0.9555369
000020 4f a0 16 bf 07 de 13 3e ba 3e 34 be 86 3c 8a bf
       -0.5883836 0.14440165 -0.17602053 -1.079972
000030 ad 04 5b be 34 ba 45 3e 04 73 58 be 17 9e 88 3e
       -0.21388502 0.19309312 -0.21137625 0.26683113
000040 08 6f 1b 3f 76 ac 2f bf ed 1b 12 bf df f1 30 bf
       0.60716295 -0.6862253 -0.5707386 -0.69119066
000050 af 1b 8c 3e f2 97 37 3f 2c 72 89 be e7 3a 8b 3f
       0.2736487 0.71716225 -0.2684492 1.087735
000060 96 6b bf 3e 9f a0 c0 3e 39 d0 9d 3e e3 ce 7c 3f
       0.3738677 0.37622544 0.30822924 0.98753184
000070 b9 bb 15 be 87 59 20 3f e8 27 f1 be 3e fa 07 3f
       -0.14622392 0.6263661 -0.4710076 0.53116214
000080 6b 8e 00 bf d5 07 fd 3d 4f e2 b7 be ca ba 07 3e
       -0.5021731 0.123550095 -0.35914847 0.13254848
000090 2b 42 1e 3e b8 42 b9 3e fd 41 93 bc d1 53 1f bf
       0.15454929 0.36183715 -0.017975802 -0.6223727
0000a0 bf c7 89 be bb 8c f3 3e ae b7 f6 3e ea 39 34 3f
       -0.26910207 0.47568306 0.4818701 0.7040087
0000b0 fa e2 93 be 51 0e 90 3e 91 cc a1 3d bf c2 93 3e
       -0.28884107 0.28135923 0.07900346 0.28859517
0000c0 5b 51 b7 be 59 03 93 be 78 77 f4 3e 58 41 15 bc
       -0.35804257 -0.28713492 0.47747397 -0.009109817
0000d0 92 f6 b3 3e b9 94 77 3f 21 26 aa be c2 4b 24 3f
       0.35149056 0.9671131 -0.33232215 0.641781
0000e0 01 41 ac be 5c b0 60 3f 5d f1 13 3e 00 4e 24 bf
       -0.33643344 0.87769103 0.14447542 -0.6418152
0000f0 63 9a fc be 6d c4 41 bf 82 63 15 3e b4 9b bf 3e
       -0.49336538 -0.75690347 0.1458874 0.3742348
000100 62 e4 03 3f fc b7 1d bf 88 9b 10 bf 7d 1c 4d bf
       0.5152036 -0.6160886 -0.5648732 -0.80121595
000110 57 89 0b be 08 57 f7 3e 96 31 c1 bd db 37 39 bf
       -0.1362661 0.48308587 -0.09433286 -0.72350854
000120 4d 3c c1 3e 74 ce 6a bf e4 23 eb be 6d 2c 2e 3e
       0.37741318 -0.9172127 -0.4592582 0.17009135
000130 03 11 14 be 72 98 83 bf 8d b9 9e 3d 2c 3f e6 3e
       -0.14459614 -1.0280898 0.07750235 0.4497007
000140 27 3f b2 3e 4a 61 4b bd b2 fb 02 3f e2 4d 02 bf
       0.34813806 -0.04965333 0.51165307 -0.5090009
000150 cb 90 b2 3e e3 de 0d be 24 8f 1f bf 90 fe 6e bf
       0.34876093 -0.13854556 -0.6232779 -0.9335718
000160 29 b7 0b 3f c2 82 42 be 49 ea 90 3d f3 df 01 bf
       0.54576355 -0.18995193 0.07075936 -0.50732344
000170 c1 4f f1 be 7e 16 95 be b9 29 ec 3e 6d 6d fb be
       -0.4713116 -0.29118723 0.46125582 -0.49106923
000180 82 4d 1b 3f 9c 89 fd be 46 da 27 bf d6 7f 19 3e
       0.6066514 -0.4951905 -0.65567434 0.14990172
