src/dgl_graphsage/170k_model.pt (torch, 5463 bytes, 6 tensors)

bias f4 [10]
-0.05513457 -0.0547624 0.10955697 -0.054105014 -0.057531558 0.22973147 -0.04028791 -0.05214635
-0.056618515 -0.05475074
00000000: c9d4 61bd 8a4e 60bd 685f e03d 389d 5dbd
00000010: 36a6 6bbd ba3e 6b3e ef04 25bd 6997 55bd
00000020: d1e8 67bd 5042 60bd

weight f4 [10, 13]
0.052024 0.15901387 -0.054021016 -0.05054155 0.40342396 0.13937618 -0.0928229 0.69800806
0.13964157 0.50678754 -0.54310495 0.18034478 0.10519889 -0.6280344 -0.54660267 -0.61623216
-0.6172922 -0.056518555 0.56409657 -0.37814075 0.17699572 0.2049649 -0.087948516 -0.6719836
0.5660936 0.61236346 -0.52969754 -0.511707 -0.4256414 0.104699165 0.21983796 0.084329404
-0.6345208 0.021825746 -0.41250533 0.7505538 0.25820962 -0.16568321 0.07068649 -0.060096756
-0.39010587 -0.5658305 -0.22886 -0.23128103 -0.5237148 -0.44931749 0.13631824 0.09572368
0.58950025 -0.77400374 -0.39619783 0.49529073 0.43549633 0.3359555 -0.3940337 -0.1946719
-0.029000277 -0.6244036 -0.10976459 -0.39409736 -0.754966 -0.34029028 0.32248005 0.52081215
-0.24896923 0.5529344 0.6619735 0.58272946 -0.8713935 0.8721805 0.3112624 0.17015989
-0.29107445 0.7282924 0.35078388 -0.20552368 0.85225207 -0.29946518 -0.36331275 0.14817269
0.31150478 0.40929684 0.25336263 -0.70210135 0.116060816 -0.14817785 0.42634925 -0.2674995
-0.55997986 0.5169748 0.19016467 0.16541192 0.53209025 0.22486858 -0.6711284 0.5533075
-0.24490269 0.6835157 0.5429099 0.056760136 0.17056079 0.4342188 -0.49436688 -0.5525774
0.19675626 0.4765867 -0.32174355 -0.54321843 0.40321866 0.5037978 -0.5964221 -0.5207771
-0.4237302 -0.50506276 0.3828691 0.5440013 -0.7122326 0.31244135 0.20590882 -0.1875841
-0.61505044 -0.679644 -0.725392 -0.73098385 0.050293908 -0.0659954 -0.1639994 0.41698667
0.34971637 -0.020198077
00000000: 1e17 553d 88d4 223e 2445 5dbd a804 4fbd
00000010: 968d ce3e a1b8 0e3e ef19 bebd a8b0 323f
00000020: 33fe 0e3e d4bc 013f ed08 0bbf 4dac 383e
00000030: 8472 d73d ddc6 20bf 27ee 0bbf 64c1 1dbf
00000040: dd06 1ebf 0080 67bd a268 103f aa9b c1be
00000050: 5e3e 353e 52e2 513e 5a1e b4bd 1e07 2cbf
00000060: 83eb 103f dac3 1c3f 429a 07bf 3bff 02bf
00000070: abed d9be 846c d63d 341d 613e e5b4 ac3d
00000080: f56f 22bf e8cb b23c e633 d3be 4b24 403f
00000090: 0d34 843e dca8 29be 14c4 903d 0428 76bd
000000a0: f5bb c7be 45da 10bf 475a 6abe efd4 6cbe
000000b0: 2c12 06bf f10c e6be 0297 0b3e c70a c43d
000000c0: 7de9 163f 1c25 46bf 71da cabe bf96 fd3e
000000d0: 60f9 de3e 5c02 ac3e c9be c9be 1258 47be
000000e0: fd91 edbc ead8 1fbf 42cc e0bd 21c7 c9be
000000f0: 7445 41bf 873a aebe 1b1c a53e f253 053f
00000100: caf1 7ebe 1c8d 0d3f 1877 293f c22d 153f
00000110: a513 5fbf 3947 5f3f c95d 9f3e 653e 2e3e
00000120: b607 95be 5f71 3a3f f299 b33e cd74 52be
00000130: 312d 5a3f 8053 99be 2104 babe 95ba 173e
00000140: 8e7d 9f3e 5b8f d13e bfb8 813e eabc 33bf
00000150: 4bb1 ed3d efbb 17be 734a da3e b2f5 88be
00000160: d75a 0fbf 7658 043f 87ba 423e be61 293e
00000170: 1137 083f f343 663e 12cf 2bbf 8fa5 0d3f
00000180: c5c7 7abe e3fa 2e3f 25fc 0a3f 517d 683d
00000190: 7da7 2e3e ed51 de3e a81d fdbe b675 0dbf
000001a0: 797a 493e 2c03 f43e 92bb a4be 5d10 0bbf
000001b0: ad72 ce3e e5f8 003f 1eaf 18bf a651 05bf
000001c0: 2af3 d8be cb4b 01bf 6b07 c43e ab43 0b3f
000001d0: e054 36bf 50f8 9f3e c3d9 523e 0c16 40be
000001e0: f273 1dbf 26fd 2dbf 4ab3 39bf c221 3bbf
000001f0: fc00 4e3d 9928 87bd 75ef 27be 477f d53e
00000200: 060e b33e 7076 a5bc

weight f4 [10, 13]
0.16195707 0.108615756 -0.099111125 0.4597514 -0.45035493 0.49854907 -0.27213502 0.5208533
-0.7705443 0.6375433 -0.17194326 0.14447029 0.202805 0.3208354 -0.29430267 0.13918534
0.37181583 0.5153893 -0.6063563 -0.13785213 0.24926548 0.49289277 -0.56923795 0.25151014
0.5512019 0.39519098 0.66228616 0.3511108 0.85448843 -0.15106465 0.66211903 -0.35333598
0.5716148 -0.85330534 -0.38765338 0.6155274 -0.22204228 -0.37508723 0.5314416 0.64285535
0.1102244 0.54541016 0.24792556 0.12311652 0.25236458 -0.43829885 0.2791951 0.5784494
0.2635133 -0.39884132 -0.55860245 0.5477453 0.2985928 -0.08760699 0.45847374 0.13724831
0.41114336 -0.5552858 0.41920036 0.3109084 0.25595817 0.20720713 0.23161577 -0.14010605
-0.5887634 0.21073298 0.47492924 0.32398453 -0.41799575 0.5296363 -0.37805218 -0.22126211
-0.41942903 -0.15054603 -0.011555228 0.44353613 -0.2891514 -0.49226642 -0.15621339 0.5169359
0.24720521 0.4157606 -0.6978529 -0.44677693 -0.1517321 -0.6608148 -0.68189543 0.23300982
0.07200732 0.08504466 -0.5835753 -0.6475878 0.6129407 -0.3837769 -0.6162449 -0.2285802
0.10390667 -0.15070945 0.6366261 0.2852626 -0.6522568 0.3391978 -0.40579963 0.26156577
-0.19414227 0.5457484 0.55482745 0.6637902 -0.19301043 -0.68363476 -0.4464302 -0.4696096
0.21944796 0.26685563 0.5873378 -0.6954085 0.6637609 -0.30197766 0.10381933 -0.0381546
0.7234658 -0.28275415 -0.028462574 -0.631203 -0.6082268 -0.34030584 0.39342502 0.33408803
0.3608254 0.24202587
00000000: 13d8 253e f071 de3d c6fa cabd 8964 eb3e
00000010: ec94 e6be d341 ff3e 4855 8bbe a456 053f
00000020: 6442 45bf 0a36 233f e511 30be 05f0 133e
00000030: 1dac 4f3e 8a44 a43e d7ae 96be 9a86 0e3e
00000040: a55e be3e 8ef0 033f 2b3a 1bbf 1c29 0dbe
00000050: 733f 7f3e 715c fc3e 94b9 11bf f0c5 803e
00000060: 911b 0d3f 7956 ca3e 968b 293f cbc4 b33e
00000070: c1bf 5a3f b1b0 1abe a280 293f 74e8 b4be
00000080: 5955 123f 3872 5abf 817a c6be 3493 1d3f
00000090: 0d5f 63be 6f0b c0be 8f0c 083f 2b92 243f
000000a0: 55bd e13d 00a0 0b3f 33e0 7d3e 8424 fc3d
000000b0: ee35 813e b568 e0be a9f2 8e3e 4315 143f
000000c0: 37eb 863e ee34 ccbe 9200 0fbf 0939 0c3f
000000d0: 28e1 983e 4b6b b3bd 12bd ea3e d28a 0c3e
000000e0: 6281 d23e 3627 0ebf 6ea1 d63e 632f 9f3e
000000f0: f30c 833e 1b2e 543e af2c 6d3e f677 0fbe
00000100: 33b9 16bf 63ca 573e ed29 f33e 4de1 a53e
00000110: 8a03 d6be 3f96 073f 0e90 c1be 8992 62be
00000120: 67bf d6be bd28 1abe 2452 3dbc 2b17 e33e
00000130: a70b 94be 580a fcbe 67f6 1fbe e955 043f
00000140: 5d23 7d3e 93de d43e 7da6 32bf f2bf e4be
00000150: a95f 1bbe 292b 29bf b390 2ebf 209a 6e3e
00000160: 9378 933d e52b ae3d 3165 15bf 50c8 25bf
00000170: afe9 1c3f 687e c4be 3ac2 1dbf ee10 6abe
00000180: 05cd d43d 9453 1abe eef9 223f f10d 923e
00000190: 4dfa 26bf 56ab ad3e f8c4 cfbe f3eb 853e
000001a0: 3bcd 46be 2bb6 0b3f 2c09 0e3f 28ee 293f
000001b0: 87a4 45be b002 2fbf 8092 e4be ab70 f0be
000001c0: f7b6 603e 4da1 883e c55b 163f 4b06 32bf
000001d0: 3cec 293f d19c 9abe 3b9f d43d ff47 1cbd
000001e0: 0e35 393f 27c5 90be 582a e9bc 8596 21bf
000001f0: c0b4 1bbf 913c aebe 016f c93e 960d ab3e
00000200: 1bbe b83e a1d5 773e

bias f4 [10]
-0.028075308 -0.03235712 0.059193313 -0.03108131 -0.014994448 0.016522616 -0.08821068 -0.034804463
0.040000454 -0.017440021
00000000: 30fe e5bc e688 04bd b074 723d 3b9e febc
00000010: 46ab 75bc 705a 873c cda7 b4bd 208f 0ebd
00000020: 84d7 233d 60de 8ebc

weight f4 [10, 10]
-0.13997278 0.69407386 0.6085261 0.6774023 0.32635355 -0.7372446 0.1736576 -0.3991634
0.183291 0.42922375 0.34383246 0.18447548 -0.60581046 0.2795099 -0.26994652 0.05688089
0.7269535 0.21247736 -0.3560585 0.627587 0.24737251 0.31308573 0.54849935 0.2502823
0.0037683058 -0.29221502 0.39460123 -0.595024 0.34483936 0.07422841 0.7882489 0.15789475
0.69283515 -0.65721023 0.4112763 -0.7292108 0.4169581 -0.29248497 0.24546812 0.52557415
-0.5872371 0.030541658 0.53569233 0.55145913 0.54250187 -0.8419257 -0.4194729 -0.30647117
-0.4156496 -0.61594385 0.634443 -0.35270202 -0.055842627 -0.15603174 0.609774 -0.21014193
-0.17608045 -0.4741751 -0.79443526 0.70705837 0.072052754 -0.705027 0.6297899 -0.394387
0.5047077 -0.18636687 -0.4818172 -0.64167005 -0.45502466 -0.3364341 0.05720613 -0.5252503
0.054503277 0.2906972 -0.71214825 -0.8358998 -0.36391634 0.3796139 0.7512936 0.55780506
0.29540363 0.7554329 -0.40783817 0.77124095 0.465519 0.6289407 -0.6259962 -0.41364306
-0.40095502 -0.63135976 -0.4645635 0.69444245 -0.26174396 0.299169 0.33211857 -0.54276884
0.1689408 0.09564203 0.53010994 0.24558547
00000000: 0655 0fbe d3ae 313f 5ec8 1b3f 3d6a 2d3f
00000010: d017 a73e 10bc 3cbf 4cd3 313e 255f ccbe
00000020: a3b0 3b3e 37c3 db3e cf0a b03e 24e7 3c3e
00000030: 6516 1bbf ec1b 8f3e 6e36 8abe f0fb 683d
00000040: a019 3a3f aa93 593e 4d4d b6be 8ba9 203f
00000050: 384f 7d3e c64c a03e 746a 0c3f 0025 803e
00000060: aef5 763b 359d 95be 2c09 ca3e 7e53 18bf
00000070: c98e b03e 1105 983d aeca 493f 29af 213e
00000080: a55d 313f ee3e 28bf cf92 d23e 8fad 3abf
00000090: 887b d53e 97c0 95be ff5b 7b3e 078c 063f
000000a0: 2c55 16bf 8032 fa3c 2223 093f 6d2c 0d3f
000000b0: 67e1 0a3f 7188 57bf 27c5 d6be cae9 9cbe
000000c0: 06d0 d4be 7fae 1dbf db6a 223f 5c95 b4be
000000d0: 3dbb 64bd c9c6 1fbe 261a 1c3f 722f 57be
000000e0: 6f4e 34be 14c7 f2be 1c60 4bbf c701 353f
000000f0: 6590 933d a67c 34bf e939 213f 18ed c9be
00000100: 8634 013f f5d6 3ebe beb0 f6be 7d44 24bf
00000110: fef8 e8be 1741 acbe fa50 6a3d ce76 06bf
00000120: d43e 5f3d 43d6 943e 594f 36bf 87fd 55bf
00000130: 3e53 babe c15c c23e c754 403f 50cc 0e3f
00000140: 253f 973e 0d64 413f 2ad0 d0be 0c70 453f
00000150: 8258 ee3e 4202 213f 4941 20bf 06c9 d3be
00000160: fa49 cdbe cba0 21bf 44db edbe fbc6 313f
00000170: 4e03 86be ae2c 993e 720b aa3e e6f2 0abf
00000180: d1fe 2c3e f8df c33d 49b5 073f c27a 7b3e

weight f4 [10, 10]
-0.59853756 0.5980827 0.28638124 0.66323113 -0.5321437 0.6046084 -0.26842284 0.14282484
-0.20156369 -0.14283794 0.16256337 0.569293 0.15247592 0.063550115 0.4994472 -0.391831
0.6003169 0.3687734 -0.34040213 -0.03147852 -0.15138476 -0.60977095 0.38247943 0.20927168
-0.40851614 0.028355598 0.37036756 -0.5676948 -0.4365693 -0.62653387 0.64595956 -0.35553238
0.67577034 0.27520108 -0.6623842 0.38785964 0.50136644 0.31350598 -0.20105292 0.29525152
-0.008739862 -0.26225388 -0.07924686 0.08018167 -0.59411997 0.67701495 -0.056241594 0.26029673
0.57396877 0.43011352 0.6213575 -0.34250826 -0.98373723 0.27921724 -0.34486234 -0.14810993
0.5267733 -0.71604127 0.26992992 0.06614885 -0.31115103 -0.7044093 0.36844715 -0.42112985
0.55518883 -0.42488182 0.56006294 -0.40990388 0.34648925 0.52227855 0.32307872 0.69934815
0.21796536 0.39267117 -0.13764341 0.5572062 0.029546773 -0.041708376 0.6153449 -0.21434008
0.44807318 -0.39290228 0.8499715 -0.59372854 0.07182683 -0.5433348 -0.38916394 -0.11039885
-0.5441387 -0.3243986 0.1897124 -0.4429879 -0.82990706 0.18967459 0.39608884 -0.97777593
-0.58301765 0.2861491 0.25586674 0.3224176
00000000: c239 19bf f31b 193f 90a0 923e 84c9 293f
00000010: 923a 08bf 9ec7 1a3f b86e 89be ad40 123e
00000020: b666 4ebe 1c44 12be 0377 263e 30bd 113f
00000030: a622 1c3e 9026 823d 8bb7 ff3e 139e c8be
00000040: 5eae 193f decf bc3e 3049 aebe 9fef 00bd
00000050: 9b04 1bbe f319 1cbf 58d4 c33e 514b 563e
00000060: 0729 d1be 004a e83c d1a0 bd3e 7254 11bf
00000070: 0386 dfbe 8664 20bf 9b5d 253f 5708 b6be
00000080: 49ff 2c3f 28e7 8c3e 0392 29bf 8a95 c63e
00000090: 8d59 003f db83 a03e d1e0 4dbe 352b 973e
000000a0: a331 0fbc 2446 86be 2e4c a2bd 4a36 a43d
000000b0: 3f18 18bf da50 2d3f 965d 66bd 9d45 853e
000000c0: 9eef 123f d737 dc3e 4911 1f3f 3e5d afbe
000000d0: 34d6 7bbf 90f5 8e3e cc91 b0be 21aa 17be
000000e0: 9dda 063f 7b4e 37bf 4134 8a3e 0c79 873d
000000f0: 304f 9fbe 2b54 34bf 1ba5 bc3e 559e d7be
00000100: db20 0e3f 1c8a d9be 4960 0f3f ecde d1be
00000110: 0a67 b13e 0cb4 053f 936a a53e 7b08 333f
00000120: 5032 5f3e 320c c93e 65f2 0cbe 11a5 0e3f
00000130: 130c f23c 67d6 2abd 3e87 1d3f f77b 5bbe
00000140: d969 e53e 7d2a c9be bb97 593f 98fe 17bf
00000150: f219 933d fd17 0bbf 7f40 c7be cb18 e2bd
00000160: ad4c 0bbf 9317 a6be f843 423e 4fcf e2be
00000170: ca74 54bf 0e3a 423e 28cc ca3e 864f 7abf
00000180: a540 15bf 2382 923e f700 833e eb13 a53e
