src/dgl_graphsage/170k_pred.pt (torch, 2975 bytes, 3 tensors)

weight f4 [10, 20]
-0.11736753 0.17945838 -0.0694795 -0.21780182 -0.27762237 0.060831502 -0.19843218 -0.016867705
0.07103774 0.076800026 -0.10650713 0.20701356 0.0043455986 -0.1148384 -0.29326272 0.29219007
-0.021156104 -0.041632213 0.13340862 0.09811875 -0.07942776 0.019741679 0.174148 -0.012380383
-0.21826251 0.112852074 0.046653878 -0.040272374 0.05603887 0.10145919 -0.16958097 0.066637725
0.19675542 0.071175486 -0.124046 0.026614904 -0.12313855 -0.16934156 0.18622807 -0.0237758
0.04355534 -0.18345612 -0.2110115 -0.15928592 -0.114334814 0.17513418 0.21768849 -0.07346931
0.22800863 -0.021317426 -0.21595114 -0.050681453 -0.09452969 -0.15720017 -0.11259699 -0.04170568
0.17764896 -0.16518927 0.122055605 0.15038867 0.14695472 0.02934682 -0.044647083 0.28201404
0.3376121 -0.1310046 0.053419285 0.32863837 0.005819356 -0.14756618 0.39957118 0.16198157
0.117830835 0.2044301 0.34036967 0.037513692 -0.0135828545 0.38559768 -0.120195046 -0.15008678
0.14451222 -0.049420092 0.14020468 -0.21778905 -0.105459586 -0.16873072 0.11673189 -0.15020147
-0.13910505 0.045529198 0.10962383 -0.05464272 -0.19086099 0.11057579 0.17483662 0.1233878
-0.15520167 -0.07738917 -0.09696841 -0.029681746 0.2351805 -0.020618297 0.0155855585 0.14382991
0.32430017 -0.2930782 0.03715294 0.36394495 -0.09004324 -0.29137608 0.21076047 -0.039240703
-0.15099223 0.18312405 -0.075445205 -0.23274513 -0.03633636 0.24322946 -0.035185527 -0.15676135
-0.18079102 0.05360207 0.13793075 -0.27444744 -0.16370857 0.11309775 0.24511185 -0.09763152
-0.0674643 -0.079795994 -0.24260603 -0.14874181 -0.14951444 0.051305618 0.005201743 -0.07775755
-0.11196109 0.13623138 -0.010336612 -0.006808461 0.19514114 0.06479598 0.078797184 0.008525924
-0.21510929 -0.14991747 0.024574334 0.080135025 0.16704912 0.1363893 0.14562449 0.14475654
-0.07124655 -0.18436725 -0.07769925 0.06214584 0.009299295 -0.14878477 -0.11901339 0.1254726
-0.15132612 0.010419656 0.025232531 -0.28422797 -0.2300838 -0.007542353 0.238976 0.008140335
-0.21854994 0.26812944 0.05161279 0.20734014 -0.16202001 0.12417909 0.13684681 0.12762015
0.07050499 -0.057285726 -0.062172268 0.20594978 -0.11686704 -0.11675394 -0.11022271 0.16437063
-0.24996541 -0.0014017748 0.09765259 -0.12825382 -0.11054095 -0.0350953 -0.2300189 0.09898629
-0.007635623 -0.14485633 0.05626457 -0.009584259 -0.101976134 -0.1546255 0.048426777 -0.07891883
00000000: 635e f0bd f0c3 373e 454b 8ebd 7107 5fbe
00000010: 8524 8ebe 742a 793d ce31 4bbe 242e 8abc
00000020: 3c7c 913d 5549 9d3d 6920 dabd 5dfb 533e
00000030: 8665 8e3b 6530 ebbd 8826 96be f099 953e
00000040: 914f adbc 8a86 2abd 459c 083e 7cf2 c83d
00000050: 05ab a2bd 4db9 a13c da53 323e 17d7 4abc
00000060: 3580 5fbe fd1e e73d 2318 3f3d a5f4 24bd
00000070: 0489 653d d6c9 cf3d a2a6 2dbe 5c79 883d
00000080: 417a 493e 74c4 913d d40b febd 8007 da3c
00000090: 1030 fcbd e067 2dbe 92b2 3e3e 77c5 c2bc
000000a0: 1667 323d ecdb 3bbe 6613 58be d91b 23be
000000b0: 5f28 eabd 6056 333e bbe9 5e3e 1477 96bd
000000c0: 187b 693e e2a1 aebc 4c22 5dbe 5b97 4fbd
000000d0: c898 c1bd 15f9 20be 4099 e6bd 93d3 2abd
000000e0: 9ce9 353e 6027 29be 4af8 f93d 7dff 193e
000000f0: 4c7b 163e be68 f03c dcdf 36bd 2564 903e
00000100: 7edb ac3e 1226 06be 2ece 5a3d 4a43 a83e
00000110: 4cb0 be3b 971b 17be 9894 cc3e 7fde 253e
00000120: 4b51 f13d 2056 513e ef44 ae3e f5a7 193d
00000130: 9f8a 5ebc 0f6d c53e d228 f6bd 59b0 19be
00000140: 03fb 133e b96c 4abd d191 0f3e 1804 5fbe
00000150: 32fb d7bd bfc7 2cbe 2111 ef3d 6ace 19be
00000160: 8e71 0ebe d37c 3a3d 7582 e03d 0bd1 5fbd
00000170: 1071 43be 8f75 e23d 5f08 333e beb2 fc3d
00000180: 30ed 1ebe 377e 9ebd 6097 c6bd 2227 f3bc
00000190: 28d3 703e b4e7 a8bc 925a 7f3c 2648 133e
000001a0: ac0a a63e 590e 96be ae2d 183d fe56 ba3e
000001b0: 9768 b8bd 3f2f 95be 98d1 573e dcba 20bd
000001c0: b59d 1abe df84 3b3e 0483 9abd bd54 6ebe
000001d0: 6fd5 14bd 2511 793e b31e 10bd 0c86 20be
000001e0: 4821 39be d88d 5b3d b83d 0d3e 6084 8cbe
000001f0: 38a3 27be cb9f e73d 9afe 7a3e 09f3 c7bd
00000200: b92a 8abd 156c a3bd b76d 78be c64f 18be
00000210: 501a 19be d725 523d 6273 aa3b 5a3f 9fbd
00000220: db4b e5bd 3d80 0b3e e55a 29bc 8319 dfbb
00000230: 14d3 473e c1b3 843d 6b60 a13d 51b0 0b3c
00000240: 9c45 5cbe f783 19be 1d50 c93c d51d a43d
00000250: ed0e 2b3e a3a9 0b3e 961e 153e 0f3b 143e
00000260: b6e9 91bd c5ca 3cbe c920 9fbd a38c 7e3d
00000270: 125c 183c 095b 18be 4bbd f3bd e47b 003e
00000280: 3cf5 1abe 34b7 2a3c 74b4 ce3c 5486 91be
00000290: 169b 6bbe d825 f7bb 20b6 743e 0a5f 053c
000002a0: 8ecb 5fbe 4348 893e ef67 533d f950 543e
000002b0: 93e8 25be 9b51 fe3d 9221 0c3e dbae 023e
000002c0: ec64 903d 70a4 6abd 59a8 7ebd 80e4 523e
000002d0: fd57 efbd b11c efbd 72bc e1bd c650 283e
000002e0: eff6 7fbe c2bb b7ba 15fe c73d f854 03be
000002f0: 4b63 e2bd 17c0 0fbd 138a 6bbe 53b9 ca3d
00000300: 4034 fabb 3855 14be ae75 663d 4c07 1dbc
00000310: ddd8 d0bd 2656 1ebe 285b 463d 32a0 a1bd

bias f4 [10]
0.023426231 -0.08508837 -0.036883634 0.2299585 -0.20463885 0.12696615 -0.051992014 -0.20568775
0.00521719 -0.0987899
00000000: 5ee8 bf3c d042 aebd 4b13 17bd 3e7a 6b3e
00000010: d98c 51be 6a03 023e 94f5 54bd cf9f 52be
00000020: f6f4 aa3b 5c52 cabd

weight f4 [1, 10]
0.07389574 0.28023574 -0.14236498 0.28405207 -0.15294416 0.3660312 -0.13749678 -0.30407903
-0.2265779 -0.16563176
00000000: a656 973d 0f7b 8f3e 20c8 11be 466f 913e
00000010: 659d 1cbe 7168 bb3e f5cb 0cbe 3fb0 9bbe
00000020: 0904 68be 5f9b 29be
