src/dgl_graphsage/170k_pred.pt (torch, 2975 bytes, 3 tensors)

weight f4 [10, 20]
0	0xbf25b1e7	-0.6472458
1	0xbd2dc2d6	-0.04242214
2	0x3e8d3f23	0.27587232
3	0x3e3ad503	0.1824532
4	0x3e152f64	0.1456886
5	0x3da9199f	0.0825684
6	0xbe851abf	-0.25996968
7	0xbf1c03ce	-0.60943305
8	0xbd7b3dc1	-0.06133819
9	0xbef10e54	-0.47081244
10	0xbf03a1cc	-0.5141876
11	0xbe8cb4e8	-0.2748177
12	0x3e13a1fc	0.14417261
13	0xbd0a2a86	-0.03373196
14	0x3ebbad35	0.36655584
15	0x3e5fab1e	0.2184262
16	0xbed59b5b	-0.4172009
17	0xbf251c8e	-0.64496696
18	0x3d5af1a2	0.053453095
19	0xbe5154bd	-0.20442481
20	0xbd07b2a1	-0.03312934
21	0xbe2fe923	-0.17178778
22	0xbe2da134	-0.16956025
23	0x3e542998	0.20718992
24	0xbdedd7fa	-0.1161346
25	0xbe214006	-0.15747079
26	0xbe5e2b58	-0.21696222
27	0x3e4382b3	0.19092827
28	0x3e23887b	0.15970032
29	0xbe445da3	-0.19176345
30	0x3e4c9cbd	0.19981666
31	0x3d6b4f07	0.057448413
32	0x3e491e65	0.19640501
33	0x3d60e70f	0.054907855
34	0xbe254f92	-0.16143635
35	0xbd3284c2	-0.04358364
36	0x3e53e910	0.20694375
37	0xbdf14dab	-0.11782392
38	0xbb98a789	-0.0046586436
39	0xbe4046c6	-0.18776998
40	0xbf2ea81a	-0.6822525
41	0xbe9ac8c8	-0.3023131
42	0x3eae57e0	0.34051418
43	0xbda45a2a	-0.0802501
44	0x3eb5694c	0.35431898
45	0x3e504b5b	0.20341246
46	0xbf1ce600	-0.6128845
47	0xbe7e7017	-0.24847446
48	0xbe778de3	-0.24175219
49	0xbe7a8c9f	-0.24467705
50	0xbf0d41b9	-0.5517841
51	0xbecba322	-0.39772898
52	0x3ebd98a3	0.37030515
53	0x3b87a9c0	0.004140109
54	0x3cf1c4be	0.02951276
55	0x3e1cd017	0.15313755
56	0xbf036a29	-0.5133386
57	0xbedd4707	-0.43218252
58	0xbe2580ab	-0.16162364
59	0xbf03db5e	-0.515066
60	0xbf349bfa	-0.705505
61	0x3d0ac524	0.033879414
62	0x3ec2a361	0.38015273
63	0x3d95733c	0.0729737
64	0x3e99eca9	0.3006337
65	0x3df0bc65	0.117546834
66	0xbe9738bb	-0.2953547
67	0xbef347a8	-0.47515607
68	0xbe45fa95	-0.1933387
69	0xbe57b0cb	-0.21063535
70	0xbedda0f4	-0.4328686
71	0xbea0bc29	-0.31393555
72	0x3eaeaa15	0.34114137
73	0x3e38349b	0.17988817
74	0x3e055cc0	0.13023663
75	0x3e075b85	0.13218506
76	0xbee93f8b	-0.45556292
77	0xbece8e93	-0.4034315
78	0x3dec9726	0.11552267
79	0xbe7d5c3e	-0.24742219
80	0xbed7b144	-0.4212743
81	0xbec2701b	-0.37976155
82	0x3e5316e9	0.20614208
83	0x3d9bb9c8	0.07603794
84	0x3e9b7b9e	0.3036775
85	0x3e008fd8	0.12554872
86	0xbef3e876	-0.4763829
87	0xbeea1586	-0.45719546
88	0xbe6856e2	-0.22689393
89	0xbedc498e	-0.43024868
90	0xbf2f32b9	-0.6843677
91	0xbe73e742	-0.23818687
92	0x3e543532	0.20723417
93	0xbe48e404	-0.19618231
94	0x3ee6656a	0.44999248
95	0x3e8fdfbb	0.2810038
96	0xbe466b3a	-0.19376841
97	0xbeacf025	-0.33776966
98	0x3cd774a4	0.026300736
99	0xbefbab55	-0.49154153
100	0xbeb91bfa	-0.36154157
101	0xbeacf26e	-0.3377871
102	0x3eed98ba	0.46405584
103	0x3d9b708c	0.07589826
104	0x3eb66b7b	0.35628876
105	0xbd4b821e	-0.049684636
106	0xbee95f8e	-0.45580715
107	0xbe9b4678	-0.303272
108	0xbe2723c2	-0.16322234
109	0xbf1e7d1d	-0.6190966
110	0xbeeb40b5	-0.45947805
111	0xbea8824d	-0.32911912
112	0x3eb8bda0	0.36082172
113	0x3e08d280	0.1336155
114	0x3e6eccbe	0.2332029
115	0x3e979fd8	0.2961414
116	0xbf0653c3	-0.5247156
117	0xbf198ecd	-0.5998352
118	0xbdcab66b	-0.09898075
119	0xbf1e974c	-0.6194961
120	0x3e025686	0.12728319
121	0x3e61df5a	0.22057858
122	0xbe861619	-0.26188734
123	0xbcc37c99	-0.023863124
124	0xbcd468da	-0.025928903
125	0xb9dac263	-0.0004172503
126	0xbd8e1809	-0.06938178
127	0x3d4832b2	0.04887647
128	0x3e3c0ed9	0.18365039
129	0xba984017	-0.001161578
130	0x3eab34c4	0.33438694
131	0xbe05213e	-0.13000962
132	0xbe7d0e46	-0.24712476
133	0xbd812a9b	-0.063069545
134	0x3ca5af3a	0.020225156
135	0xbdee39d0	-0.116321206
136	0x3e680bdd	0.22660775
137	0x3ca400d0	0.020019919
138	0x3e85960a	0.26091033
139	0x3e0cfa05	0.1376725
140	0xbdeac5ee	-0.11463533
141	0x3e26681d	0.16250654
142	0xbd811a22	-0.063038126
143	0x3d6c84cf	0.057743844
144	0xbde1902d	-0.110138275
145	0xbd94adf1	-0.07259739
146	0xbd52d53d	-0.05147289
147	0x3e543857	0.20724617
148	0x3e50839a	0.20362702
149	0xbdccfb2b	-0.10008844
150	0x3e67fc60	0.22654867
151	0xbd5078ef	-0.05089658
152	0xbe5ca774	-0.21548253
153	0xbd8922ed	-0.06696115
154	0xbda2eb33	-0.07955017
155	0xbd3b0004	-0.04565431
156	0xbc8ed4fd	-0.017435545
157	0xbd8828ea	-0.06648429
158	0xbe4b06e7	-0.19826852
159	0xbe512281	-0.20423318
160	0xbf0459f1	-0.5169974
161	0xbe30ac78	-0.17253292
162	0x3efeef48	0.49791932
163	0x3e1e4ec9	0.15459742
164	0x3e4bfdfa	0.19921103
165	0x3e203337	0.15644537
166	0xbf126f3d	-0.57200986
167	0xbeda4714	-0.42632353
168	0xbe0ebb8d	-0.13938732
169	0xbebc6bd5	-0.3680102
170	0xbf391e56	-0.72311914
171	0xbe403a17	-0.1877216
172	0x3e6cf911	0.23141886
173	0x3e470dc2	0.19438842
174	0x3ec5b426	0.38614005
175	0x3d071168	0.032975584
176	0xbeb1d6ea	-0.3473428
177	0xbef1d74c	-0.4723457
178	0xbdbc78a2	-0.092026964
179	0xbf14f310	-0.58183384
180	0xbd830f7a	-0.06399436
181	0xbd9bb847	-0.076035075
182	0x3d6177ac	0.05504577
183	0xbd6b1251	-0.057390515
184	0xbe233edc	-0.15941948
185	0xbca5e81f	-0.020252286
186	0xbd8876d4	-0.0666329
187	0xbccd6bce	-0.02507582
188	0x3c0dbc6c	0.00865088
189	0xbe2a534b	-0.16633336
190	0xbdbaed72	-0.0912732
191	0x3e0fbcc4	0.14036852
192	0xbe26de23	-0.16295676
193	0xbe17cd43	-0.14824395
194	0x3cdadd7d	0.026716942
195	0xbddf10ba	-0.10891862
196	0x3defc338	0.11707157
197	0x3e83be5e	0.25731176
198	0x3dd25798	0.102706134
199	0xbe502bdb	-0.2032923

bias f4 [10]
0	0x3e19fefb	0.15038674
1	0xbdb611bb	-0.088901006
2	0x3dd88f9e	0.10574268
3	0xbc30fa5f	-0.010801881
4	0x3de65c30	0.11248052
5	0x3dc9f4bc	0.098611325
6	0x3c9f1f10	0.019423991
7	0x3c422b5c	0.011851158
8	0x3dece8bd	0.11567829
9	0x3cccbd0d	0.02499249

weight f4 [1, 10]
0	0x3ecbfd53	0.3984171
1	0x3e81e858	0.25372577
2	0x3eadac00	0.33920288
3	0x3eaf1abc	0.34200084
4	0x3e7e31fa	0.24823752
5	0x3ec05940	0.37568092
6	0x3d911ebb	0.070859395
7	0x3d90b3ff	0.070655815
8	0x3e965515	0.29361787
9	0x3daf257f	0.08552074
