src/dgl_graphsage/170k_1epoch_model.pt (torch, 5463 bytes, 6 tensors)

bias f4 [10]
00000000: 0b5a 5fbd 5841 20bd d9f8 0a3e 6346 60bd
00000010: 9397 453e a942 60bd 08fc 60bd 4846 60bd
00000020: 02ee 5ebd 3d46 60bd
-0.05452923 -0.039124817 0.1357149 -0.054754626 0.19296102 -0.054751072 -0.054927856 -0.054754525
-0.0544262 -0.054754484

weight f4 [10, 14]
00000000: a26c 173f 88f0 bc3d 790f 91be 9a99 e9be
00000010: 7538 dcbe a84b 043f 7837 3dbf 88d4 d8be
00000020: a1aa f63d 3cfa 46bd 3f18 603e 3888 1d3f
00000030: 1696 1c3f 91a4 0a3e 26a7 133f 372c 153f
00000040: dd7a a1bd 5baf 4e3e 4b2f 123c 94fa b2be
00000050: 6b32 323f d386 d9be 421f 46bf c9ea 19bf
00000060: 88d8 1cbf 1e88 9bbd cd6d 573d dd39 683e
00000070: 9c29 f1be a4e8 303f 9212 253f 40c0 54be
00000080: 4bbe 0b3f 420b 2e3e 85fe d93d b369 ba3e
00000090: f1df 6b3e 88d8 f83d 1e0a 8c3e b5ea cd3e
000000a0: e47d 023e a05d 093f 0e68 e9bd 9666 92be
000000b0: 2f37 943e 0a95 e0bd 0381 133f cbc7 e33e
000000c0: c264 083e c9c4 1c3e bcfa 44be 0293 013f
000000d0: ffb8 d03e 4fa3 9dbe a4d4 fdbd 393f 22be
000000e0: 1dd2 ecbe fc59 0f3f 1682 953d 374f 133f
000000f0: 468f 27bf 7491 fa3e 9aea 503f bc91 ed3e
00000100: d770 6c3e 144f 123f f2ee e5bc 8854 603f
00000110: 389a 243f ebc5 dd3d d3fc 37bf 7539 01bf
00000120: 8ecb ebbd 5f18 0d3c 8a34 ce3e 1d5c 17be
00000130: fa9a febe daba edbd 7bca b6bd d508 e3be
00000140: cf29 043f 3b76 fa3e 8f51 123f 5168 6ebe
00000150: dfe0 123f a6e4 3cbf 1c76 15bf 820e 4c3e
00000160: 9221 30bd 7243 fdbe 6494 22bf 83e4 223f
00000170: 91ec 14bf 9b2b 74be f4c6 87be 9433 3ebf
00000180: 108e 96bd abc5 2dbe f1ed c0be fd02 fb3e
00000190: 83d9 72be 99e0 1c3f 8b94 b53d 1c3c 743c
000001a0: 08b6 e9be 761c 63be 3f01 f1be 0f3b b13e
000001b0: 0a2e f33e f527 963e 5fcd ac3e 2069 debe
000001c0: df6d 3b3e 8242 c1bc 4861 a0be 407c fcbe
000001d0: 52a5 f2be be8a 2cbf e059 0d3f 9efd babe
000001e0: e469 bc3e fc82 283e 435c 6dbc 2c94 163f
000001f0: 8832 abbb bb25 6a3e 938e 10bf 0b54 37be
00000200: de3d 73be b383 3bbf 2a51 3f3f 171c 3a3e
00000210: 98c2 013f e663 3e3d febf c0be c681 15bf
00000220: 06a0 2dbf 2484 b9be d932 d83e 647e 00be
0.59150136 0.09225565 -0.28332117 -0.45625 -0.43011823 0.5167794 -0.73912764 -0.42349648
0.12044264 -0.048578486 0.21884249 0.6153598 0.6116651 0.1353934 0.57676923 0.5827059
-0.078847624 0.2018408 0.008922408 -0.349568 0.6960818 -0.42485675 -0.77391446 -0.6012388
-0.612679 -0.07594322 0.05259495 0.22678323 -0.47102058 0.6910498 0.6448146 -0.20776463
0.5458724 0.16996482 0.10644249 0.36408767 0.23034646 0.12150675 0.2735147 0.4021813
0.12743336 0.53658485 -0.113968 -0.28593892 0.28948352 -0.10965927 0.5761873 0.44488367
0.13319686 0.15309443 -0.19236273 0.5061494 0.4076614 -0.30788657 -0.123940736 -0.1584443
-0.46254054 0.5599668 0.073002025 0.5754275 -0.6545299 0.48939097 0.81607974 0.4640025
0.2308992 0.57151914 -0.02806804 0.87628984 0.6429782 0.108287655 -0.71870154 -0.504783
-0.11513434 0.008611768 0.4027446 -0.14781232 -0.49727613 -0.11607905 -0.08925339 -0.44342676
0.51626295 0.48918328 0.571557 -0.23281981 0.57374376 -0.7378639 -0.58383346 0.1992741
-0.043000765 -0.4946552 -0.63507676 0.6362993 -0.5817347 -0.23844759 -0.26518977 -0.7429745
-0.07351315 -0.16969936 -0.37681535 0.49025717 -0.23715787 0.6128021 0.08866223 0.014906909
-0.4564669 -0.22178826 -0.47071263 0.3461537 0.47496063 0.2932736 0.33750436 -0.4343958
0.18303631 -0.023591284 -0.3132422 -0.49313545 -0.47391754 -0.67399204 0.55215263 -0.3652162
0.36799538 0.16456217 -0.014487329 0.5881984 -0.0052245297 0.22865956 -0.5646755 -0.17903154
-0.23754069 -0.7324783 0.7473322 0.18174778 0.5068755 0.04648199 -0.37646478 -0.58401144
-0.678223 -0.36233628 0.42226294 -0.12548214

weight f4 [10, 14]
00000000: efbc f2be cb2b b23b 20aa 153e a83d 853e
00000010: 379b 24bf 52bf d6be 316e 10bf 1446 4ebe
00000020: 0ef0 dd3e 5ed8 10bf 1e37 123f 39fd 42bf
00000030: ddcc ffbe 3a1a 0e3f baff abbd 098f 243f
00000040: 833b 9f3e e79f 823c 94ed 1ebf a182 10bf
00000050: 99dc 2e3f 6578 163f ad8f 0e3e 625c fabe
00000060: 2214 a53e e151 b03e 03a5 ae3e e3e9 2e3f
00000070: a77f 8d3e 80b7 edbe 22c5 0f3f cc70 c1be
00000080: e8e3 493e b891 673f 0225 103e 26aa 24bd
00000090: 7187 4cbf ffb9 d0bd 90a4 0a3f ef72 81be
000000a0: 4572 78be 210c 5f3e 891a 07bf 0fc5 103f
000000b0: 4eff c2be 5a36 22bf 4f44 043e 77b2 733e
000000c0: 082c a23e 8755 3b3e d6cf c83e 7b7b 2cbf
000000d0: 62e5 14bd cfbb 0fbf 894d fc3e ff5b 0fbf
000000e0: e857 2abe 6a6b 31be 6758 34be 153b 163f
000000f0: 57b6 da3d e095 c73e 20cb cd3d afef 403f
00000100: 5b73 7f3e 118b f73e d7bd 4c3d 18b4 9f3e
00000110: 8952 9dbe 3440 d6be 7938 813e 6396 3c3e
00000120: a496 983e 7aae 5cbe 4681 5d3e f355 d63e
00000130: 3f72 803e 0a62 c3bd daf1 3e3f 7df1 5dbe
00000140: bf08 31bf c279 36bf cf31 b4bd 6dc8 1ebd
00000150: 258d 23bf aa95 183f 1412 1bbf d2bc 8cbe
00000160: 37c7 12be 3b50 32bf 440d a93e 6cc2 c83e
00000170: 60a1 09be 5078 a5be bde8 5dbe 9190 9c3e
00000180: 9bf8 1d3f ebd0 36bf a52c 1cbf 175d 1ebf
00000190: 29bb f53e f625 433e 62bb de3e 6119 11bf
000001a0: 4abf 38bf d93d 0ebf bb79 2ebf 9490 30bd
000001b0: 2596 133f e607 40bf 16af 243b a066 15bf
000001c0: 19db 113e ea93 b5be 20e7 24bf e49e 7dbe
000001d0: 2a74 cabe 606f 1c3f dbe0 8ebd 5005 2c3e
000001e0: d8a6 893e 53c1 7b3b 80f6 6e3e 1575 38be
000001f0: 3ac3 183d aad6 1e3e 5427 ffbd 2000 4abd
00000200: 6f0c 74be 2529 04bf 32e6 09bf 2792 49be
00000210: c601 ce3e f9b1 a3be 5acf 0b3f 75d8 2ebe
00000220: 5a5b 1d3f 797b 8a3e 02ec 39bf 808f d4bd
-0.4740977 0.0054373494 0.14615679 0.26023602 -0.6429934 -0.4194284 -0.5641814 -0.2014392
0.4334721 -0.5658015 0.5711535 -0.7616764 -0.49960986 0.5550877 -0.08398385 0.64280754
0.3110009 0.015945388 -0.62081265 -0.56449324 0.68305355 0.5877746 0.13921995 -0.48898607
0.32241923 0.3443747 0.3411027 0.6832563 0.27636454 -0.46429062 0.56160176 -0.3778137
0.19715846 0.90456724 0.14076617 -0.04020133 -0.7989417 -0.10191726 0.5415735 -0.25283
-0.2426234 0.2178197 -0.52774864 0.5655069 -0.38085407 -0.63364184 0.12916683 0.23798548
0.31674218 0.18294345 0.39221066 -0.67375916 -0.03635157 -0.5614595 0.49277905 -0.5599975
-0.16635096 -0.17326131 -0.17611848 0.586839 0.1067931 0.38981533 0.10048509 0.7536573
0.24946348 0.48348287 0.049985733 0.31192088 -0.30727032 -0.41845858 0.25238398 0.18416743
0.2980243 -0.21550933 0.21631345 0.4186245 0.25087163 -0.09540184 0.74587786 -0.21674152
-0.6915397 -0.7127954 -0.08798563 -0.03876536 -0.63887244 0.5960337 -0.6057446 -0.27487808
-0.14333807 -0.6965367 0.33017933 0.39210832 -0.13440466 -0.32318354 -0.21670814 0.30579045
0.61707467 -0.71412534 -0.6100562 -0.61860794 0.47994354 0.1905745 0.43502337 -0.5667935
-0.72166884 -0.5556312 -0.68154496 -0.04310663 0.5765098 -0.7501205 0.0025128773 -0.5835972
0.14243735 -0.35464412 -0.6441517 -0.24767643 -0.3954175 0.61107445 -0.069764815 0.16798902
0.26885104 0.003841479 0.2333622 -0.18013413 0.037295558 0.15511575 -0.12458673 -0.049316525
-0.23832868 -0.5162528 -0.53866875 -0.19684659 0.40235728 -0.3197172 0.5461327 -0.1707476
0.61467516 0.27047327 -0.72625744 -0.10378933

bias f4 [10]
00000000: eb74 b3bc 763c 84bd 419d e93b 022a 96bc
00000010: 09e6 ac3d 9da8 02be 4a7a a7bc ebc8 16bc
00000020: 418b 94bc f05c 303d
-0.021906337 -0.064568445 0.007129342 -0.018330578 0.08442313 -0.12759633 -0.020444054 -0.009203176
-0.018132808 0.043057382

weight f4 [10, 10]
00000000: f983 033f 2eb2 813b b8b3 10bf 3af8 12bf
00000010: 6ce8 19bb 3a17 1ebf e488 503f 271d febe
00000020: c948 4fbf 8e19 e1be 5438 d3be 3e1d 153f
00000030: 0d24 4e3e 80c0 ebbe 5ae3 b63e cbf5 2bbf
00000040: 119a 2f3e f40e 283f 07a4 d3be 0e84 b5be
00000050: 95d3 3abf 1344 b23d ef14 0d3f 888d 273e
00000060: 7f9f 013f f083 2d3e f72d 05bf 4a01 e63e
00000070: d825 dbbe 4e3a c03d 144f e53e 6377 1abf
00000080: 11ff 1abf 43e5 27bf c4a3 24bf 9557 0ebe
00000090: f79b c9bd 2959 0cbf 9ba4 a63e 3cc5 063e
000000a0: d806 143f 5175 35bf 54ec 97be aee4 02bf
000000b0: 5eb5 c43e e4bb 863e fc0c 2d3e 905d 34bf
000000c0: 1b3d 123f e555 303f 71c6 56bd 2946 2cbf
000000d0: 1e52 f03c 0954 cb3e 2a5e 39bf 8fa8 313f
000000e0: 91b3 63be af53 4a3d 92bc 233f 7f18 e73e
000000f0: 5437 25bf b3c3 fa3d ea2b ab3e 8d8b 703c
00000100: c1c8 5c3c 4c86 e0be 3e93 ccbe ce0d 263f
00000110: a9f5 2a3f cb05 fcbe a24b a8be 6b9e 3ebe
00000120: f98c dcbe c6b6 14bf 6a19 2c3f 351a f8be
00000130: dd2c adbe 0f7f 8c3e 08a7 76be f266 0dbf
00000140: cc6d 8f3e d5de 1c3f a0f4 1d3f fe1e d2bd
00000150: 5a12 fabd d60f 143f 2223 b93c 84e0 1ebf
00000160: ef7c b7bd 0229 dc3e 2f45 033f 28ae e1be
00000170: a672 5b3f 16ef 233e 6b43 413f 89ae 273f
00000180: 75d8 83be 4fc8 56be e06f 96be eace f33e
0.5137325 0.0039580083 -0.5652423 -0.57410014 -0.0023484481 -0.6175419 0.8145888 -0.49631616
-0.80970436 -0.4396481 -0.41253912 0.58247745 0.2013094 -0.46045303 0.3572033 -0.67171925
0.17148615 0.65647817 -0.4133608 -0.35452312 -0.729791 0.087043904 0.5511007 0.16362584
0.50633997 0.16944861 -0.5202326 0.44922858 -0.4280231 0.09386121 0.44786894 -0.6033842
-0.6054545 -0.655842 -0.64312387 -0.13900597 -0.09844201 -0.5482355 0.3254746 0.13161176
0.5782294 -0.70882136 -0.29672492 -0.5113019 0.38419622 0.26315224 0.16899484 -0.70455265
0.5712449 0.68881065 -0.052435342 -0.67294556 0.029336032 0.3971255 -0.7240931 0.69397825
-0.22236468 0.049396213 0.6395961 0.45135877 -0.6453755 0.12244358 0.3343194 0.014681709
0.013475598 -0.4385246 -0.39956087 0.64864814 0.667811 -0.4922317 -0.32870203 -0.18615119
-0.43076304 -0.5809139 0.6722628 -0.48457494 -0.3382329 0.27440688 -0.24087155 -0.5523521
0.28013456 0.61277515 0.61701393 -0.102598175 -0.122105315 0.57836664 0.02259976 -0.62061334
-0.08959376 0.43000036 0.5127744 -0.44078183 0.85721815 0.16009173 0.75493497 0.65500695
-0.2575108 -0.20974849 -0.2938223 0.476188

weight f4 [10, 10]
00000000: 7ba4 59be 0f14 4d3e 5861 283d 0b0b 953e
00000010: 54a5 5abf a1d0 debe bdbb 443f db02 64be
00000020: 1534 2bbf 37d2 153f 5096 143f b0f4 2d3e
00000030: 3d5a b7be 8310 cabe b0fa 363f ada9 e03d
00000040: d0c4 ad3e 5d74 14be 026a e1bc a31a 9d3e
00000050: d585 823c 636f 073f 7c49 bbbe 1388 253e
00000060: c80e 6abf 2b1a d2be 2079 8bbe 12be 34bf
00000070: c532 10bf d12f 18be 9f92 0c3f eb4d 713e
00000080: 3920 fabe 0a49 973d d2d2 1dbd c0ed 003f
00000090: d310 c33e b6a1 113f 254b 33bf 3ab8 403a
000000a0: 557c e03e c7e7 353d 132a 20bf 45d8 bc3e
000000b0: aae7 f0be 44af 18bd 9541 19bf 9ad9 3ebf
000000c0: 5953 01be 5980 ae3e cefa ce3e fcb1 103e
000000d0: 36f1 183f 92d6 3c3e 2d09 073f 2146 01bf
000000e0: 8c43 a93d b20e 1f3f 80c1 fd3e f7ac 823e
000000f0: b94a 09bf 2a00 053f 62bc aa3e 8532 fb3d
00000100: d6fd 0b3f 5039 31bf 4214 3b3f 95d0 be3e
00000110: 6414 073f fab8 c1be 6188 7bbe 6d7b 63bf
00000120: df39 e0be df37 5cbe 8203 db3c 7b55 a23c
00000130: 2293 d43d e3ce de3d f0c3 d03e a011 d33e
00000140: 0cc5 4cbf 060e 91be 529f 32bf 46ce edbe
00000150: 6e8a 41bf 4f97 443f 3769 a2be 276b 31bf
00000160: 8ced cc3e ceac 1ebd 9115 f43e 87b1 093f
00000170: e406 e1bc e593 a0be 8961 cfbe 66a4 b23e
00000180: ed8b 133e 9836 0ebf 6d5e 0c3f f081 2f3d
-0.2125415 0.20027183 0.04110846 0.29109988 -0.8540852 -0.43518546 0.76848966 -0.22266714
-0.66876346 0.5852389 0.5804186 0.16987872 -0.35811034 -0.39465722 0.7147627 0.10969863
0.3393922 -0.14497514 -0.027516369 0.30684385 0.015932957 0.5290434 -0.36579502 0.1616519
-0.91428804 -0.4103559 -0.2724085 -0.70602524 -0.5632747 -0.1486199 0.54911226 0.2356488
-0.4885271 0.07386978 -0.038531132 0.5036278 0.38098773 0.56887376 -0.70036536 0.00073516706
0.43844858 0.044410493 -0.625642 0.3688375 -0.47051746 -0.03727652 -0.59865695 -0.74550784
-0.12629451 0.34082296 0.40425724 0.14130396 0.5974306 0.18441227 0.52748376 -0.50497633
0.08264837 0.621318 0.4956169 0.25522587 -0.5362964 0.51953375 0.3334685 0.12265495
0.546842 -0.69228077 0.73077786 0.3726851 0.5276549 -0.37836438 -0.24563743 -0.8886021
-0.43794152 -0.21505688 0.026735071 0.01981615 0.10379626 0.10879304 0.40774488 0.41224384
-0.7998817 -0.28331012 -0.69774354 -0.46446437 -0.7560185 0.7679338 -0.31720898 -0.69304127
0.40024984 -0.03873902 0.47672704 0.5378651 -0.027469106 -0.31362835 -0.405041 0.3489105
0.14408846 -0.55552053 0.5483158 0.042848527
