src/dgl_graphsage/170k_1epoch_model.pt (torch, 5463 bytes, 6 tensors)

bias f4 [10]
-0.0592967 -0.05947958 0.17445143 -0.060396124 0.19850697 -0.059455935 0.1589886 0.36894956
0.0 -0.05945864
00000000: 19e1 72bd dca0 73bd 65a3 323e ed61 77bd
00000010: 6945 4b3e 1188 73bd e8cd 223e f5e6 bc3e
00000020: 0000 0000 e78a 73bd

weight f4 [10, 13]
0.07609337 0.28564748 0.45976737 0.38979658 0.42663413 -0.38549286 -0.35773233 -0.29489213
-0.119685404 -0.5535285 -0.59752715 -0.4953522 -0.7038464 -0.366946 -0.2524397 -0.16805609
-0.6511045 0.32294637 -0.62856203 -0.5793367 -0.4158004 -0.17000331 -0.5653599 -0.6705706
0.100494936 -0.11685492 0.11136858 0.6302708 0.12740242 0.3541667 0.11374031 0.36201444
-0.5389736 -0.36801484 -0.5563335 0.36121863 0.40221313 -0.012461981 0.26375768 -0.69714504
0.035455436 -0.75480586 0.0931313 -0.5520469 -0.57706237 0.36072162 -0.24659489 -0.6082144
-0.25127116 -0.05913323 -0.28775033 0.33221146 -0.061995685 -0.24779813 0.5852176 0.08364432
0.25852177 0.15248896 -0.6040694 0.4435656 0.7867639 -0.045382783 -0.41811708 0.51413846
0.82723385 -0.4017942 -0.7280182 -0.465303 0.77933586 -0.48002177 -0.01884137 -0.2726912
0.2688846 0.39242646 -0.5631853 -0.724432 -0.08386945 -0.6761903 0.5745635 0.5319601
-0.23508719 -0.6987275 0.31869683 0.9670374 -0.7558244 -0.31335336 -0.40291932 -0.19376573
0.574295 -0.4358524 -0.17632426 0.5804224 0.9465034 1.0060571 -0.6517124 -0.019948063
0.7986261 -0.3467049 0.14970209 0.3542737 0.5856573 0.5099134 0.40863264 0.82518095
-0.3590407 -0.567886 0.4058297 0.24761309 0.040287677 -0.21707088 -0.3731499 -0.5168181
-0.18182346 -0.6110541 -0.2957401 -0.46962708 0.670508 -0.646895 -0.27543417 -0.43772402
0.5197947 0.5044313 -0.15976092 -0.73144954 0.5218092 0.39161602 0.4854582 0.035834674
-0.3123042 0.030040642
00000000: d7d6 9b3d 6340 923e a166 eb3e 6b93 c73e
00000010: ca6f da3e 525f c5be b128 b7be 1afc 96be
00000020: 9f1d f5bd 0bb4 0dbf 8af7 18bf ce9e fdbe
00000030: 472f 34bf 59e0 bbbe c73f 81be e516 2cbe
00000040: c9ae 26bf 3a59 a53e 71e9 20bf 694f 14bf
00000050: cae3 d4be 5915 2ebe 6dbb 10bf 84aa 2bbf
00000060: 4ad0 cd3d a251 efbd 3615 e43d 6d59 213f
00000070: c875 023e 5655 b53e aef0 e83d f559 b93e
00000080: 2dfa 09bf 716c bcbe df6b 0ebf a6f1 b83e
00000090: e1ee cd3e 562d 4cbc 3f0b 873e 1978 32bf
000000a0: b839 113d f53a 41bf 9fbb be3d f252 0dbf
000000b0: 5cba 13bf 81b0 b83e 5f83 7cbe f0b3 1bbf
000000c0: 9da6 80be b035 72bd 0354 93be 9f17 aa3e
000000d0: 30ef 7dbd cbbe 7dbe d2d0 153f b74d ab3d
000000e0: f75c 843e 1126 1c3e 4ba4 1abf 081b e33e
000000f0: 5c69 493f 4ce3 39bd 7113 d6be 949e 033f
00000100: 99c5 533f f8b7 cdbe 675f 3abf 323c eebe
00000110: 8e82 473f 6ac5 f5be 3759 9abc 2e9e 8bbe
00000120: 3eab 893e 1fec c83e e92c 10bf 6074 39bf
00000130: bfc3 abbd cf1a 2dbf 9816 133f 8a2e 083f
00000140: b2ba 70be cedf 32bf 3b2c a33e c38f 773f
00000150: b57d 41bf da6f a0be 714b cebe 866a 46be
00000160: ff04 133f 0c28 dfbe 598e 34be 9096 143f
00000170: 0c4e 723f 7bc6 803f a0d6 26bf 1f6a a3bc
00000180: c372 4c3f 4e83 b1be 814b 193e 5d63 b53e
00000190: a3ed 153f af89 023f 4c38 d13e 0f3f 533f
000001a0: 2fd4 b7be fa60 11bf e9c8 cf3e 498e 7d3e
000001b0: b104 253d d447 5ebe 810d bfbe 314e 04bf
000001c0: ee2f 3abe 0b6e 1cbf 3f6b 97be f672 f0be
000001d0: 6aa6 2b3f e99a 25bf b505 8dbe 5d1d e0be
000001e0: 4411 053f 6922 013f 5e98 23be 4740 3bbf
000001f0: 4a95 053f e581 c83e fa8d f83e 61c7 123d
00000200: 56e6 9fbe cb17 f63c

weight f4 [10, 13]
0.2794175 -0.048947882 0.066858046 0.5111957 -0.51347965 0.5939862 0.5820361 -0.4178499
-0.6005251 -0.3987128 0.20267817 -0.010669971 -0.3559731 -0.7549339 0.5713698 -0.07357121
-0.367434 -0.7381211 -0.2690514 -0.54090816 0.6982884 -0.767562 0.53379625 0.04403264
-0.06947601 0.55285484 0.11604439 -0.16687903 0.015204296 -0.3668371 0.17378177 0.84109616
0.6953569 -0.08860202 0.15496582 1.0911493 0.071904704 0.15945022 1.0028735 0.07072078
-0.4570489 0.48974648 0.16313109 0.18610689 0.47237396 -0.016297033 -0.45039308 0.27252918
0.1466254 -0.4938913 0.63406146 0.6355394 0.35323215 0.8141989 0.018160958 -0.4080858
-0.015691727 0.9486266 0.6948582 0.39339092 -0.35786834 0.020090912 0.05593025 0.7202165
0.6635564 0.18236373 0.12280225 -0.101336226 0.5248499 0.4789068 0.09716245 0.13710012
0.29031232 0.25360793 0.046223074 -0.31336257 0.058529295 0.42146456 0.2460595 0.21739292
-0.09186476 0.18211646 0.9987125 0.68913305 0.0016816946 -0.50157833 0.27077585 0.37226522
0.028860178 -0.22688182 -0.12614971 -0.019732203 -0.047561925 1.0548131 -0.25988686 -0.011127408
-0.08161406 -0.15208766 0.5466034 0.24056184 -0.17392364 0.9587259 0.3147303 0.62214565
-0.31633568 -0.35530764 0.3436668 -0.41946185 0.23612241 -0.30255052 -0.30670604 -0.5103822
0.38888383 0.16781148 -0.28807712 -0.6690029 -0.14002615 0.54480594 -0.40316612 -0.26493838
-0.47874334 0.6475126 0.2404524 -0.34887382 -0.19017431 0.25623602 -0.21238405 -0.66564626
0.26667786 -0.75023293
00000000: d00f 8f3e 937d 48bd dfec 883d b9dd 023f
00000010: 6773 03bf 7b0f 183f 5100 153f 6cf0 d5be
00000020: 03bc 19bf 1624 ccbe de8a 4f3e 1ad1 2ebc
00000030: 1b42 b6be 5943 41bf 4b45 123f 81ac 96bd
00000040: 4f20 bcbe 81f5 3cbf 1bc1 89be f578 0abf
00000050: 07c3 323f f17e 44bf dfa6 083f 925b 343d
00000060: 7049 8ebd e587 0d3f aea8 ed3d 56e2 2abe
00000070: 711b 793c 13d2 bbbe d9f3 313e 1452 573f
00000080: e902 323f fa74 b5bd 5caf 1e3e c8aa 8b3f
00000090: c642 933d eb46 233e 295e 803f 0ed6 903d
000000a0: 5002 eabe 0dc0 fa3e d60b 273e ce92 3e3e
000000b0: 00db f13e 5b81 85bc ec99 e6be f288 8b3e
000000c0: f824 163e 52df fcbe da51 223f b6b2 223f
000000d0: d8da b43e 576f 503f 4ac6 943c 9ff0 d0be
000000e0: f08b 80bc 31d9 723f 3ae2 313f 896a c93e
000000f0: 853a b7be b295 a43c 1e17 653d 1c60 383f
00000100: d5de 293f 8fbd 3a3e bf7f fb3d 5e89 cfbd
00000110: 905c 063f 4633 f53e 1bfd c63d f963 0c3e
00000120: d1a3 943e e6d8 813e 6854 3d3d 0f71 a0be
00000130: 6abc 6f3d 34ca d73e 06f7 7b3e 409c 5e3e
00000140: 9723 bcbd bd7c 3a3e 9fab 7f3f 066b 303f
00000150: 4f6c dc3a 7067 00bf 22a3 8a3e 8c99 be3e
00000160: 2e6c ec3c b553 68be 642d 01be 6ea5 a1bc
00000170: 4bd0 42bd 1e04 873f e40f 85be bb4f 36bc
00000180: 4625 a7bd debc 1bbe 33ee 0b3f d855 763e
00000190: 0a19 32be 106f 753f 5424 a13e f044 1f3f
000001a0: c0f6 a1be e2ea b5be 18f5 af3e b4c3 d6be
000001b0: 13ca 713e e7e7 9abe 9308 9dbe 68a8 02bf
000001c0: c81b c73e c6d6 2b3e d87e 93be c643 2bbf
000001d0: 0463 0fbe 6778 0b3f ca6b cebe 01a6 87be
000001e0: d91d f5be 63c3 253f 2739 763e 979f b2be
000001f0: 0ebd 42be 5e31 833e 347b 59be cb67 2abf
00000200: 008a 883e 440f 40bf

bias f4 [10]
0.0039847028 -0.02437157 0.052386183 0.05177293 0.37843922 -0.0003000527 0.022057403 0.04929732
-0.10325503 -0.018783964
00000000: 1c92 823b e3a6 c7bc e592 563d da0f 543d
00000010: c9c2 c13e 6450 9db9 bab1 b43c fdeb 493d
00000020: 6077 d3bd d4e0 99bc

weight f4 [10, 10]
-0.0025203307 0.6553145 0.331508 -0.23936829 0.14569771 0.48995692 -0.24747124 -0.23014493
0.35994354 -0.29889715 0.46053627 -0.2936263 0.2611939 0.080612324 0.41140968 0.14006372
0.63387084 -0.7082396 0.07361358 0.6652348 0.31580645 0.4564144 0.34646258 -0.5541753
0.11340476 -0.030441249 0.24838005 0.8677029 -0.18150648 -0.65220594 0.68428516 0.5713495
0.22850926 0.6584002 -0.2680415 -0.632866 -0.2600214 0.5099264 0.04854203 0.68057567
-0.6337846 0.77246547 0.307664 -0.058220882 0.8643404 0.6106067 -0.29013315 -0.09732121
-0.11016159 0.21234657 -0.437993 -0.46924916 -0.027119262 0.37160146 -0.49946228 -0.051117554
-0.5418109 0.39865813 -0.65319294 -0.52545685 -0.08409012 0.57303774 -0.10312836 -0.75724334
-0.33312356 0.21313585 -0.14629696 0.6079058 -0.116318665 -0.5386011 0.29601437 0.30781758
0.2469134 0.03200433 0.16729777 0.09261046 0.17940252 0.4212244 -0.024326464 -0.3118309
-0.767106 0.51701146 -0.015233798 -0.48871028 -0.71174866 0.51730657 -0.48346478 0.38811842
0.74338967 0.33663535 -0.03693774 -0.44063985 0.6097756 -0.4814875 -0.29074785 0.80239695
0.5024976 -0.12029285 -0.6529073 -0.63669825
00000000: 222c 25bb b1c2 273f 6bbb a93e f61c 75be
00000010: c831 153e a2db fa3e 1a69 7dbe 1dab 6bbe
00000020: 854a b83e 0c09 99be 69cb eb3e 3056 96be
00000030: 35bb 853e 1318 a53d 4aa4 d23e dd6c 0f3e
00000040: 5c45 223f 314f 35bf b7c2 963d d44c 2a3f
00000050: 62b1 a13e 26af e93e 8b63 b13e 6fde 0dbf
00000060: c140 e83d ed5f f9bc 5757 7e3e c721 5e3f
00000070: d6dc 39be f8f6 26bf 502d 2f3f f643 123f
00000080: 55fe 693e ea8c 283f bc3c 89be 8203 22bf
00000090: 8621 85be 898a 023f 02d4 463d 353a 2e3f
000000a0: b53f 22bf 4cc0 453f 2386 9d3e 0579 6ebd
000000b0: 6a45 5d3f b850 1c3f 558c 94be 5850 c7bd
000000c0: 669c e1bd 6171 593e 9e40 e0be 6d41 f0be
000000d0: 3729 debc 8c42 be3e 85b9 ffbe a460 51bd
000000e0: 1fb4 0abf eb1c cc3e a737 27bf 5784 06bf
000000f0: 7137 acbd 9ab2 123f f634 d3bd b3da 41bf
00000100: 2c8f aabe 4940 5a3e dfce 15be b79f 1b3f
00000110: 7b38 eebd c3e1 09bf 328f 973e 449a 9d3e
00000120: ded6 7c3e f916 033d 1b50 2b3e 8eaa bd3d
00000130: 4bb5 373e b9aa d73e 4b48 c7bc 4da8 9fbe
00000140: 0f61 44bf dd5a 043f 2e97 79bc 3c38 fabe
00000150: 2935 36bf 346e 043f b288 f7be 75b7 c63e
00000160: c94e 3e3f 785b ac3e 074c 17bd 8c9b e1be
00000170: 411a 1c3f 8885 f6be e7dc 94be e369 4d3f
00000180: afa3 003f 195c f6bd ef24 27bf a8fe 22bf

weight f4 [10, 10]
-0.57162917 -0.5256804 1.063202 -0.27359676 0.015340751 -0.059086163 0.8277856 0.77981466
0.61561155 -0.37698922 -0.3605313 0.18724573 0.44057927 -0.12021328 0.49994847 0.21363758
0.7553 0.63121927 0.24768233 0.05958676 -0.47320947 -0.26231554 -0.6722811 0.08870765
-0.81195265 0.2551118 -0.3858885 0.5388304 0.036157046 0.10045424 0.1626151 0.34683284
-0.94241387 0.63813156 -0.6594173 0.22972032 -0.1833068 0.23391624 -0.43730348 -0.062245723
-0.24108571 -0.12526478 -0.6113167 -0.4722747 0.7087071 -0.70034856 -0.7316849 -0.3255382
-0.7125989 -0.36650866 -0.0759701 0.04181968 0.16539203 0.09554328 0.31825337 -0.13939503
0.7329341 -0.37426746 -0.4501894 0.7906863 -0.11346512 0.43072835 0.122651726 -0.7566224
-0.23454984 0.5020127 -0.8964435 -0.8681424 0.3498708 0.5736496 -0.5652608 -0.39748105
0.28940862 0.66650945 -0.8484554 0.0893295 -0.55352765 -0.74254495 0.5654962 -0.36725852
0.6804923 0.62642777 0.09026963 0.078916855 0.95808667 0.7883336 0.24103135 0.8227291
0.066790454 -0.6418328 -0.18681118 0.117758274 0.78525406 -0.012165742 -0.17517824 0.20229618
0.30412108 0.8671228 0.6990462 -0.48902187
00000000: 4a56 12bf fe92 06bf 0117 883f e014 8cbe
00000010: c657 7b3c 5504 72bd c2e9 533f efa1 473f
00000020: b898 1d3f bb04 c1be 8f97 b8be 58bd 3f3e
00000030: 9b93 e13e 6132 f6bd 3ff9 ff3e cfc3 5a3e
00000040: 575b 413f 9697 213f 70a0 7d3e 3f11 743d
00000050: 8348 f2be 394e 86be 9d1a 2cbf 5bac b53d
00000060: 21dc 4fbf 049e 823e 2d93 c5be caf0 093f
00000070: 6919 143d f4ba cd3d 9384 263e 1394 b13e
00000080: 0942 71bf 975c 233f 92cf 28bf ce3b 6b3e
00000090: c7b4 3bbe bd87 6f3e 3ee6 dfbe 5ff5 7ebd
000000a0: 2cdf 76be 6945 00be 407f 1cbf fdcd f1be
000000b0: d46d 353f 0b4a 33bf b44f 3bbf f1ac a6be
000000c0: e26c 36bf 06a7 bbbe 3696 9bbd 1d4b 2b3d
000000d0: 875c 293e 32ac c33d 1bf2 a23e 92bd 0ebe
000000e0: 92a1 3b3f fc9f bfbe 3a7f e6be 6b6a 4a3f
000000f0: 6760 e8bd 6d88 dc3e d430 fb3d 01b2 41bf
00000100: d52d 70be e883 003f 527d 65bf 953e 5ebf
00000110: 4422 b33e b3da 123f efb4 10bf a382 cbbe
00000120: 5e2d 943e 5da0 2a3f 6034 59bf 63f2 b63d
00000130: fdb3 0dbf 6d17 3ebf 5cc4 103f 4f09 bcbe
00000140: be34 2e3f 925d 203f 49df b83d 299f a13d
00000150: 2b45 753f 3bd0 493f ecd0 763e 609e 523f
00000160: 6fc9 883d 284f 24bf 6e4b 3fbe 402b f13d
00000170: 6906 493f d252 47bc ed61 33be bb26 4f3e
00000180: c2b5 9b3e c3fb 5d3f b1f4 323f 1361 fabe
