src/dgl_graphsage/170k_1epoch_pred.pt (torch, 2975 bytes, 3 tensors)

weight f4 [10, 20]
-0.16615987 -0.16830856 -0.06575141 0.019728484 -0.21229726 0.22274898 -0.21278702 -0.03878878
0.10145311 0.030327152 0.1932396 -0.09111639 0.21056399 0.066370875 -0.037529446 -0.17675327
-0.06009293 -0.089429334 -0.20509383 -0.1759132 0.35004023 0.24956882 -0.2478889 -0.123621814
-0.61695313 -0.024712503 -0.175606 -0.07871965 0.1652128 0.07119525 0.09961543 0.102250926
-0.1812592 -0.21080717 -0.2972437 -0.005112894 -0.28601232 -0.40666872 0.1322213 0.2014151
-0.23407876 -0.2418463 0.25778392 0.09679983 -0.06049029 -0.20973228 0.058524765 0.27388507
-0.24623989 -0.17867503 -0.15613128 -0.10992071 0.2820666 0.258506 -0.13119224 -0.16755399
0.016482791 0.19746362 -0.04432835 -0.28518826 -0.02321932 0.10687352 -0.0798947 0.2625333
-0.05193805 -0.024059879 0.09232151 0.10061779 0.08361236 -0.2151337 -0.20365956 -0.25545695
0.102489255 -0.0581566 -0.18818928 -0.08986747 0.23637971 -0.043885816 -0.104028486 -0.25831842
-0.18186793 -0.046667464 0.14635408 -0.11725847 -0.0432971 -0.11440233 0.21872412 0.24710591
-0.13341564 -0.1869791 0.06296085 -0.12647812 0.010625052 0.18935028 -0.04019288 -0.20964396
0.07923675 0.25601584 0.04837289 -0.11189387 -0.040600635 -0.16141704 0.060851157 0.14289132
-0.09572248 0.09222119 -0.064195916 -0.021856578 0.024485 0.11734795 -0.16982369 0.15214834
0.07535216 -0.14701915 -0.18170555 -0.13409527 0.12874548 0.2657023 -0.03200665 -0.101618625
0.32496867 0.00353976 -0.45760688 -0.05350226 -0.49250507 0.21469268 -0.07924135 -0.2336643
0.15920746 -0.05429686 0.26310202 0.2885157 -0.40208304 -0.29855305 -0.31713054 0.2822254
-0.118990324 -0.13718472 0.3080277 0.2080294 -0.20577268 -0.096559204 0.2626449 -0.13222677
0.08971194 0.009805366 0.24820565 0.15119554 0.039942257 0.0040809773 -0.2136668 -0.056059152
0.25809562 0.035088256 0.035679568 -0.124536045 0.12360586 -1.716295e-05 -0.24849886 -0.07607781
0.034541424 -0.08397476 -0.12990643 -0.3418823 -0.26928735 -0.04755363 -0.0057517774 -0.30689323
0.31780946 0.22474895 -0.057321455 0.105540164 -0.05254554 -0.1706536 -0.16272205 -0.0038984176
-0.02890709 -0.002998178 0.07921156 0.1593605 0.17520383 -0.20761186 -0.01881946 0.1902726
-0.16953455 -0.031599335 -0.10625815 -0.071558185 -0.22131588 -0.03309618 -0.106789455 0.054084077
-0.03573062 -0.14106071 -0.16390781 0.18875462 0.05946867 -0.004377503 -0.12962864 0.039989874
00000000: d025 2abe 1459 2cbe ada8 86bd a19d a13c
00000010: 7464 59be 4f18 643e d7e4 59be fce0 1ebd
00000020: a6c6 cf3d a670 f83c 9ae0 453e 3b9b babd
00000030: 169e 573e 74ed 873d 7ab8 19bd cffe 34be
00000040: 0124 76bd ba26 b7bd 1e04 52be 9722 34be
00000050: 7938 b33e f88e 7f3e 96d6 7dbe 6f2d fdbd
00000060: a4f0 1dbf e071 cabc 0fd2 33be c537 a1bd
00000070: 8b2d 293e d1ce 913d 2d03 cc3d ef68 d13d
00000080: 039c 39be d6dd 57be 5430 98be 108a a7bb
00000090: 3570 92be e236 d0be 0565 073e c33f 4e3e
000000a0: 58b2 6fbe 8ea6 77be 41fc 833e fd3e c63d
000000b0: abc4 77bd 0fc4 56be aab7 6f3d aa3a 8c3e
000000c0: 4f26 7cbe 96f6 36be e1e0 1fbe 1c1e e1bd
000000d0: 096b 903e e65a 843e 4257 06be 4693 2bbe
000000e0: eb06 873c e733 4a3e a591 35bd 3204 92be
000000f0: 7236 bebc 81e0 da3d d59f a3bd c46a 863e
00000100: febc 54bd 3919 c5bc 0f13 bd3d b310 ce3d
00000110: f53c ab3d 024c 5cbe 228c 50be 41cb 82be
00000120: e3e5 d13d 9d35 6ebd b1b4 40be 700c b8bd
00000130: 860d 723e 9dc1 33bd e30c d5bd 5042 84be
00000140: 963b 3abe 6226 3fbd d8dd 153e 3525 f0bd
00000150: 4d58 31bd c54b eabd 37f9 5f3e 5509 7d3e
00000160: 1c9e 08be 7377 3fbe 9ef1 803d 7b83 01be
00000170: b314 2e3c 0ae5 413e 4aa1 24bd e8ac 56be
00000180: e146 a23d 8214 833e a722 463d 9d28 e5bd
00000190: da4c 26bd 824a 25be 103f 793d 1a52 123e
000001a0: 260a c4bd 77de bc3d 2679 83bd 910c b3bc
000001b0: c494 c83c 1f54 f03d 43e6 2dbe c6cc 1b3e
000001c0: 3c52 9a3d 308c 16be 0511 3abe 4550 09be
000001d0: dbd5 033e 220a 883e 6819 03bd 6d1d d0bd
000001e0: 4b62 a63e 51fb 673b 734b eabe 3025 5bbd
000001f0: a029 fcbe 66d8 5b3e 4a49 a2bd b245 6fbe
00000200: 4807 233e 6266 5ebd 4fb5 863e 54b8 933e
00000210: d4dd cdbe f2db 98be ef5e a2be d97f 903e
00000220: 33b1 f3bd 277a 0cbe cfb5 9d3e a905 553e
00000230: 13b6 52be d5c0 c5bd 6479 863e 7466 07be
00000240: e5ba b73d b0a6 203c 9f29 7e3e 01d3 1a3e
00000250: 7e9a 233d b8b9 853b 78cb 5abe 489e 65bd
00000260: 1c25 843e b4b8 0f3d bd24 123d c10c ffbd
00000270: 1225 fd3d 28f9 8fb7 7c76 7ebe afce 9bbd
00000280: 4f7b 0d3d f5fa abbd 3106 05be 320b afbe
00000290: 08e0 89be 98c7 42bd 6879 bcbb 1c21 9dbe
000002a0: ecb7 a23e 9724 663e e7c9 6abd 7125 d83d
000002b0: fe39 57bd d1bf 2ebe 9ca0 26be 987c 7fbb
000002c0: 90ce ecbc 147d 44bb ac39 a23d 662f 233e
000002d0: a268 333e 3498 54be 452b 9abc d2d6 423e
000002e0: 779a 2dbe 4e6e 01bd df9d d9bd 198d 92bd
000002f0: a1a0 62be dc8f 07bd 6eb4 dabd 4487 5d3d
00000300: 455a 12bd 3872 10be 73d7 27be e448 413e
00000310: 6c95 733d 2871 8fbb 5fbd 04be 6ccc 233d

bias f4 [10]
-0.18441966 0.08189705 0.06565021 -0.052759178 -0.045232818 -0.06935018 0.11176221 -0.03910997
-0.19265553 -0.12348195
00000000: 82d8 3cbe a4b9 a73d 9e73 863d 021a 58bd
00000010: 0c46 39bd 7807 8ebd 96e3 e43d c731 20bd
00000020: 7e47 45be 1be4 fcbd

weight f4 [1, 10]
-0.2237449 0.2987043 -0.17211929 0.031993385 -0.027967883 -0.0850783 0.23831922 -0.13765524
0.4417402 -0.21827653
00000000: 621d 65be c5ef 983e 0a40 30be 7f0b 033d
00000010: e71c e5bc 883d aebd f409 743e 7ff5 0cbe
00000020: c62b e23e e283 5fbe
