src/dgl_graphsage/170k_1epoch_pred.pt (torch, 2975 bytes, 3 tensors)

weight f4 [10, 20]
00000000: c91d 4bbe fd5f bc3d 8e81 85be aad4 28bd
00000010: c411 4e3c b91b 5e3e 2c4e 113e 7231 8bbd
00000020: 3589 9fbe 6515 003e e287 4cbe c5ac ae3d
00000030: 1b86 62be 0b42 ed3c 616b 56be 57b5 c43d
00000040: b146 0abd 5d10 96bd 40c6 81be 4d4c 4fbe
00000050: 36af a9bd 1b8f 6cbe b64f c4bd fca7 f83c
00000060: 67b4 aa3c 23b0 2c3d 3572 2b3d 6e6b 08bc
00000070: 7840 ddbd 99ad 23be 0305 593e 092e e73d
00000080: a0c1 403e 1c86 7c3e 2588 f03d 94d0 123e
00000090: d1fa 1c3d 1186 603e caf2 863d 75a4 61be
000000a0: 747a 0cbe 02f8 313e 74e8 9bbc 95df 97bd
000000b0: c667 9bbe e2d0 e43d 554a fe3b 9b20 b13d
000000c0: e458 59be 7c19 aabe a2aa 43be 3b3d 1e3d
000000d0: 2999 adbe 1b92 09be fee4 ad3d 2738 303d
000000e0: 37d9 e2bd 7985 99be 30d8 1dbe 3fc2 4ebd
000000f0: 8902 153d a511 04be 41cb c3be 7090 3a3d
00000100: 7475 023d bb1b 753c 9f18 0b3e d67f 083e
00000110: 33ac 63be 5e49 98bd 63b6 c8bd 06a6 dcbd
00000120: d60f 03bd c87c 0bbe e27f 083c 416c a23e
00000130: 5655 763e 3e0e 6bbd 35f1 b23d cc4d 17be
00000140: fac6 213e 523b f9bc 7a17 c1be 906b 6ab9
00000150: 4c11 e83c 064e 043e 99b5 02bd 8536 74be
00000160: 7d33 c6bd fafa febd 906a 1b3b c5eb 2f3e
00000170: 3888 b5be 4f43 18be 8de5 5ebe 9404 2c3e
00000180: 13c0 de3d 1ffb a5bd 7a6a 1cbe b015 ebbc
00000190: f040 343e c41c 493d 99f1 e7bd 5db9 1c3e
000001a0: 5eb1 ba3d a464 febc e644 273d 066c 53bd
000001b0: ceae d63c a6fd 5f3e ba41 4b3e 6727 86bd
000001c0: 42c4 f53d 6a3b 7ebd 9b4d 3b3e c839 a53d
000001d0: 97d6 f3bd 964d f2bd a00f f4bd bdce 81bd
000001e0: 56e6 58be 4185 e3bd 5066 daba 887e f7bd
000001f0: 8fb2 aabd 8494 263d 00fe 293c 191f 62be
00000200: ccb4 b1be 5962 55be 2dd6 37be 99a2 9bbd
00000210: e637 8abe 360b 3fbe a4c1 93be 0f4e c83e
00000220: d539 14bd 4e51 9cbe f012 40be eeaa 70bd
00000230: 0217 393d 6ec0 1d3d 4ff5 8cbe afac 6d3e
00000240: 91ae a63c e8d8 723e ec9b 4dbc 7741 74bd
00000250: d45e e5bb 7645 37be 52f0 4bbd 7932 7bbd
00000260: db63 4ebe d741 fbbc f310 a0be 107b 2f3c
00000270: 8f55 b63d f8c5 6d3d a226 abbe 6752 8fbe
00000280: daba 2c3e bd10 bf3d 9ebb a5be 898e 463e
00000290: de54 56be bf09 1f3e 1a16 0e3e 9368 95be
000002a0: d616 67be 6735 22be b665 d6bc 06a6 443e
000002b0: 8ecb 2ebd 788b b5bc fb29 75be fda5 193d
000002c0: 93e4 943e 164f 41bd d0e6 9fbe a4a4 a7bd
000002d0: 07e6 45be bb1d 51be 044d 083e 5b2a 033e
000002e0: e808 5cbe 2ee4 823d 3fa3 55be 97c6 88bd
000002f0: af08 2abd 7c3d a93d 220c 8fbd 1681 bd3d
00000300: 35d2 38be 1c7d bc3c 0abf d7bc 1026 ee3d
00000310: 3540 c0bd 78a9 b13d f001 cbbd 98f3 27be
-0.19835581 0.09197996 -0.26075405 -0.041218437 0.012577478 0.21690263 0.14189976 -0.0679654
-0.31159368 0.12508161 -0.1997371 0.08529047 -0.2212147 0.028962156 -0.209394 0.096049
-0.033758823 -0.0732734 -0.25346565 -0.2024395 -0.08285372 -0.23101465 -0.09585516 0.030353539
0.020837976 0.042160165 0.041856963 -0.0083263945 -0.10803312 -0.15984191 0.21193318 0.112880774
0.18823862 0.24660534 0.117447175 0.14337379 0.038325135 0.21926142 0.06589277 -0.22035392
-0.13718587 0.17379764 -0.01903174 -0.07415692 -0.3035261 0.11172654 0.007760326 0.08648797
-0.21225315 -0.33222568 -0.1910806 0.038632613 -0.33905914 -0.13434641 0.084909424 0.0430223
-0.11076587 -0.29984644 -0.154145 -0.050478216 0.03637937 -0.12897356 -0.38241008 0.045547903
0.031850293 0.014960225 0.13583611 0.13330016 -0.22233658 -0.07435869 -0.098004125 -0.10773854
-0.031997524 -0.13621819 0.008331271 0.31723216 0.2405599 -0.05738663 0.08737413 -0.14775771
0.1579856 -0.030423794 -0.37713224 -0.00022356049 0.02832856 0.12920389 -0.031911466 -0.23848923
-0.09677789 -0.12450214 0.002371464 0.17179783 -0.3545549 -0.14869426 -0.21767254 0.16798621
0.10876479 -0.08104538 -0.15274993 -0.028696865 0.17602897 0.0490997 -0.11325378 0.15305085
0.09115861 -0.031053849 0.04083719 -0.05161669 0.0262064 0.21874103 0.19849291 -0.06550484
0.12000324 -0.06206838 0.18291323 0.080676615 -0.11906164 -0.118312046 -0.11917043 -0.0633826
-0.21181616 -0.111094005 -0.0016662572 -0.12084681 -0.083348386 0.04066898 0.0103755 -0.22082175
-0.3470825 -0.20838298 -0.17952795 -0.075993724 -0.26995772 -0.1865662 -0.28858674 0.39122054
-0.036187965 -0.3053078 -0.18757224 -0.05875676 0.045187958 0.038513593 -0.27530906 0.23210405
0.020346912 0.23715556 -0.012549382 -0.059632745 -0.00699983 -0.17897591 -0.049789734 -0.06132743
-0.2015528 -0.030671043 -0.3126293 0.010710493 0.08903038 0.058050126 -0.33427912 -0.27992555
0.16868153 0.093293644 -0.32369703 0.1939031 -0.20930812 0.15531062 0.13875619 -0.29181346
-0.22567305 -0.15840684 -0.026171546 0.19203958 -0.042674594 -0.02216123 -0.23941796 0.037511814
0.29080638 -0.047194563 -0.31230783 -0.081856996 -0.1932603 -0.20421498 0.13310629 0.12809126
-0.21487772 0.06391178 -0.20863055 -0.06678503 -0.041512188 0.0826368 -0.06984736 0.09253137
-0.18048938 0.023008876 -0.026336212 0.116283536 -0.093872465 0.08674902 -0.09912479 -0.16401517

bias f4 [10]
00000000: 3a61 fabd 2e17 07be 1450 803e 9658 5f3e
00000010: 657c 053e 409b 0fbd b4f6 243e 4d0d 803e
00000020: 9f0f 1b3e b564 1dbe
-0.12225576 -0.13192436 0.25061095 0.21811137 0.13035734 -0.035060167 0.16109735 0.25010148
0.15142678 -0.15370448

weight f4 [1, 10]
00000000: a636 b83e 3c7a c63c b228 573e f971 593e
00000010: 8061 cd3d 72bf 1c3e 3d28 ad3e 2188 373e
00000020: 57f7 933e 89cb 713e
0.35979193 0.024228208 0.21011618 0.21234883 0.10028362 0.15307406 0.33819762 0.17923023
0.28899643 0.23612799
