src/dgl_graphsage/460k_pred.pt (torch, 2975 bytes, 3 tensors)

weight f4 [10, 20]
0	0x3db68dc3	0.08913758
1	0x3dee32ae	0.1163076
2	0x3dcefd35	0.10106889
3	0xbe8e2a70	-0.27766752
4	0x3dd42e4d	0.10360394
5	0xbe070fc0	-0.13189602
6	0xbd9cf8e4	-0.076646596
7	0xbdd1138f	-0.10208809
8	0xbe260f81	-0.16216852
9	0xbc8d6a68	-0.017262653
10	0xbad6595c	-0.0016353535
11	0x3e11b496	0.14229044
12	0xbd98e819	-0.07466144
13	0xbdff15c8	-0.12455326
14	0xbd33292d	-0.04374044
15	0xbe904dfd	-0.281845
16	0x3e833f6e	0.2563433
17	0xbde21fe0	-0.11041236
18	0x3d7459c1	0.05965591
19	0x3e9be1c2	0.30445677
20	0xbdd49bdd	-0.10381291
21	0xbdbb3af2	-0.09142102
22	0xbe0c7895	-0.13717873
23	0x3caf8c25	0.02142913
24	0x3e8e1bf6	0.27755708
25	0xbe288f7c	-0.16460985
26	0x3e02553a	0.12727824
27	0xbe24279e	-0.16030738
28	0xbd063521	-0.03276551
29	0x3e128b10	0.1431086
30	0xbe136aaa	-0.14396158
31	0x3dc112cf	0.094274156
32	0xbe0e4316	-0.13892779
33	0xbe22b47d	-0.15889163
34	0x3e04be97	0.1296333
35	0xbe2ce90f	-0.1688578
36	0x3df9f363	0.122046255
37	0xb9de5ede	-0.0004241382
38	0x3e3745cf	0.17897724
39	0xbdf7a5dd	-0.12092183
40	0x3e434956	0.19070944
41	0x3e2482c0	0.16065502
42	0xbdd092bf	-0.101842396
43	0xbc3ddc66	-0.011588192
44	0x3e233eef	0.15941976
45	0xbe6751c8	-0.22589791
46	0xbd236f90	-0.039901316
47	0xbd976cbc	-0.07393786
48	0x3dc9772b	0.098371826
49	0xbe136050	-0.14392209
50	0x3d0e54a0	0.034748673
51	0x3e382d58	0.17986047
52	0x3e34cf41	0.17657186
53	0x3c2a4ff1	0.010395036
54	0x3d84efe2	0.064910665
55	0xbe88f5cd	-0.2675003
56	0xbe0d7b79	-0.13816632
57	0x3dace5fd	0.08442304
58	0x3dd3249f	0.10309719
59	0x3d4771c8	0.048692495
60	0xbca5d775	-0.02024434
61	0xbe9bd438	-0.30435348
62	0x3d6dbad0	0.058039486
63	0x3e6ff473	0.23433094
64	0xbdf9d8ee	-0.12199579
65	0x3e04febb	0.12987797
66	0xbe8cf13f	-0.27527806
67	0x3d4158cb	0.04720382
68	0xbd12179b	-0.035667043
69	0xbe3b8292	-0.18311527
70	0x3e0803de	0.13282725
71	0x3da42a58	0.08015889
72	0xbe52323a	-0.20526972
73	0x3da54912	0.08070578
74	0xbebafe6a	-0.36522228
75	0x3ea1b3ec	0.31582582
76	0xbe387c5f	-0.18016194
77	0x3e0ef023	0.13958792
78	0x3cee257d	0.02907061
79	0xbe37edb3	-0.17961769
80	0x3ca756ea	0.020427186
81	0x3da0dfcc	0.07855186
82	0xbb9181e2	-0.004440532
83	0xbe2da269	-0.16956486
84	0x3d0ab9e8	0.0338687
85	0xbe90bc64	-0.2826873
86	0xbd1e48d8	-0.038643688
87	0x3de756ad	0.11295829
88	0x3d2b8c24	0.041881695
89	0x3bbbaf29	0.005727668
90	0xbe546150	-0.20740247
91	0xbdbd8e68	-0.092556775
92	0xbe802437	-0.2502763
93	0xbabf5245	-0.0014596662
94	0x3dfb125c	0.12259361
95	0x3da17ac3	0.07884743
96	0xbdfa2780	-0.12214565
97	0xbde68273	-0.1125535
98	0x3e15bcf6	0.14622864
99	0x3e64ee2a	0.22356477
100	0xbf437a64	-0.7635863
101	0x3f6d63ef	0.9273061
102	0xbf032919	-0.51234585
103	0xbf71dec0	-0.94480515
104	0x3f409043	0.75220126
105	0x3e58110d	0.21100254
106	0x3f3853dc	0.7200296
107	0x3efcd7c0	0.49383354
108	0xbf843495	-1.0328547
109	0x3ef15c8e	0.47140926
110	0xbf716b1c	-0.9430406
111	0x3f85033c	1.0391612
112	0xbf18ab28	-0.59636164
113	0xbf64c0e8	-0.8935685
114	0x3f21e0b4	0.63233495
115	0x3c00feb9	0.007873231
116	0x3f88da58	1.0691633
117	0x3ee4d2a3	0.44691953
118	0xbf676c2f	-0.9039945
119	0x3ee6f0c5	0.45105568
120	0x3eba3bcb	0.36373743
121	0xbe0334e6	-0.12813148
122	0x3dcc481f	0.099746935
123	0x3f00ee9e	0.503641
124	0xbef47f97	-0.47753593
125	0x3d487e66	0.048948668
126	0xbed75bd9	-0.42062262
127	0x3e51b471	0.20478989
128	0x3eda246a	0.42605907
129	0x3c9bfd10	0.019041568
130	0x3edc8133	0.4306732
131	0xbee0e265	-0.43922725
132	0x3ce584af	0.02801737
133	0x3e1df850	0.15426755
134	0xbeccffce	-0.40038913
135	0x3e60b0af	0.219424
136	0xbe4a65cb	-0.19765393
137	0x3e0243ec	0.12721223
138	0x3eaf4d46	0.34238642
139	0xbee3c549	-0.44486454
140	0xbdca93d3	-0.098914765
141	0x3d355b40	0.044276476
142	0xbcd1bd25	-0.025602886
143	0x3d226140	0.039643526
144	0xbe0b0bbc	-0.13578695
145	0x398b366e	0.000265527
146	0xbc28471a	-0.010270858
147	0xbd5994cd	-0.053120423
148	0xbe8325e3	-0.25614843
149	0x3dd0d959	0.10197706
150	0xbe4e2df2	-0.20134714
151	0xbd94ca7e	-0.07265185
152	0x3ddb89a1	0.1071961
153	0xbdecdf06	-0.11565976
154	0x3d3f1f8e	0.046660952
155	0xbe80d02e	-0.25158828
156	0x3d8ef7cf	0.069808595
157	0xbdad0d80	-0.084498405
158	0x3e8a6015	0.2702643
159	0xbe211a87	-0.15732776
160	0xbe67ad2d	-0.22624655
161	0xbd476a2e	-0.048685245
162	0xbe1c8f5d	-0.15289064
163	0xbe39fb01	-0.18162157
164	0x3e6af4a4	0.22944885
165	0xbe43f967	-0.19138108
166	0xbd4970aa	-0.04917971
167	0x3d3a5faf	0.045501407
168	0xbe8cc2b5	-0.274923
169	0x3e05ecfa	0.1307868
170	0xbdda9379	-0.106726594
171	0x3e193c8b	0.14964502
172	0xbd3069ed	-0.04306977
173	0xbe8d1834	-0.27557528
174	0x3da27ac4	0.07933572
175	0xbd8442c8	-0.0645805
176	0x3e443ca7	0.19163762
177	0xbe61f667	-0.22066651
178	0xbcbf89de	-0.02338117
179	0xbc9281fd	-0.017884249
180	0xbd5c04f2	-0.053715654
181	0x3e332844	0.17495829
182	0xbe35a385	-0.17738159
183	0xbdd9ce02	-0.10634996
184	0x3da084f3	0.07837858
185	0xbe5cd589	-0.21565832
186	0xbe183f0b	-0.14867799
187	0xbe999b58	-0.3000133
188	0xbe8f2799	-0.27959898
189	0x3e7c3fc1	0.24633695
190	0xbda840d1	-0.08215488
191	0x3def4162	0.11682393
192	0xbd032ec2	-0.032027014
193	0xbd3bbdcf	-0.045835312
194	0x3e0654c4	0.13118273
195	0xbe4a9879	-0.19784726
196	0xbc8de2ec	-0.017320119
197	0x3df36cc0	0.11885977
198	0xbe80d00f	-0.25158736
199	0x3e968ec7	0.29405805

bias f4 [10]
0	0x3d52a975	0.051431138
1	0xbe1174b8	-0.14204681
2	0xbd5a0831	-0.05323047
3	0xbeb9c797	-0.36285087
4	0xbdf1f498	-0.11814231
5	0x3ef602ee	0.4804911
6	0x3b9152fd	0.004434942
7	0xbdc6972f	-0.09696805
8	0xbca421d5	-0.020035664
9	0x3d67c51b	0.05658446

weight f4 [1, 10]
0	0xbbd29d56	-0.0064274473
1	0x3e6886a6	0.22707614
2	0xba66f243	-0.00088099035
3	0x3e4ee390	0.20203996
4	0xbdd19d10	-0.102350354
5	0xbf74ff81	-0.9570237
6	0x3eaa57b5	0.3327004
7	0xbe0da1dc	-0.13831276
8	0xbe13ca09	-0.14432539
9	0x3cc390b4	0.02387271
