src/dgl_graphsage/460k_model.pt (torch, 5463 bytes, 6 tensors)

bias f4 [10]
000000 c6 9d 21 bd 93 f6 06 3f d2 04 f8 3e 13 fc 75 bd
       -0.039457105 0.5271999 0.48441178 -0.06005485
000010 b5 0c c4 bc ae e8 74 bd 9a f8 75 bd 3e 2b 3b bd
       -0.02393184 -0.059792213 -0.060051538 -0.045695536
000020 00 00 00 00 41 f0 19 3f
       0.0 0.60132223

weight f4 [10, 13]
000000 ed 87 a4 3e 19 4d dc 3e 85 42 fe be ab 3f e9 3e
       0.32134953 0.4302757 -0.49660125 0.45556387
000010 d2 9d aa 3d 3a a6 1b bf e3 a0 c5 be 7b e7 ba 3d
       0.08330883 -0.60800517 -0.3859931 0.09126183
000020 93 8d ec 3c ef 07 f8 bd 50 3f 24 be c1 a0 8c 3e
       0.028876102 -0.12110888 -0.16039777 0.27466395
000030 aa e3 db 3d 2f 59 4a 3f b4 0e 2c 3f 6c 88 68 3f
       0.10736783 0.79042333 0.67209935 0.90833163
000040 f0 54 93 3e 34 16 ee 3d 7e 91 58 be 5c 57 88 bf
       0.2877574 0.11625329 -0.21149251 -1.065166
000050 39 a6 ec 3e 67 77 86 3f e8 9a 97 bd 06 b5 0c 3f
       0.46220568 1.0505189 -0.07402593 0.5496372
000060 22 9e 73 bd 94 94 57 3f f0 fd ea 3d c4 aa d4 3e
       -0.05947698 0.8421109 0.11474216 0.41536534
000070 00 71 2d 3f 37 97 a8 bf ff c5 2a 3f b2 4b 00 40
       0.6775055 -1.3171147 0.6670837 2.00462
000080 d9 12 ac 3f c1 fa 0e 3f c4 2d ce 3f ef 83 99 3f
       1.3443252 0.5585137 1.6107717 1.1993388
000090 05 bb 3b 3c 29 03 30 3d 5c 62 fb bc 57 4a 84 be
       0.011458163 0.042971764 -0.03068655 -0.25837967
0000a0 e9 25 d6 bb b1 52 3e bf 89 8d 0e 3e 03 81 04 3f
       -0.006535281 -0.7434493 0.13921179 0.51759356
0000b0 03 e6 ec be bc c0 3f be 1c 6b 1a 3f 54 a1 1c 3f
       -0.46269235 -0.18725866 0.60319686 0.6118367
0000c0 77 19 34 bf af 76 49 be 08 f7 2c bf 7f fd b6 3e
       -0.70351356 -0.1967418 -0.6756444 0.35740277
0000d0 04 d6 12 3e 80 d9 0a bf 0f f3 1d 3f 89 2f 9a be
       0.14339453 -0.5423813 0.61699003 -0.3011439
0000e0 33 8a 29 bf c2 c5 8e be 32 6a 29 3f 3b 2f 1c bf
       -0.662265 -0.27885252 0.66177666 -0.6100957
0000f0 b6 05 08 be 55 0c f1 be 20 12 e4 3e 76 26 32 3e
       -0.13283429 -0.4707972 0.44545078 0.17397484
000100 88 e2 dd be 3d 9c 0f 3f 51 7a ee 3e 99 c8 55 be
       -0.43336892 0.56097776 0.46577695 -0.20877303
000110 53 0a 8a be da b0 d1 3e fa 3e 36 3c 16 d8 9a 3e
       -0.26961002 0.4095524 0.011123413 0.30242985
000120 54 72 e8 3e 72 88 85 be e2 fa 9f 3e 7e 0b b5 be
       0.45399725 -0.26080662 0.31246096 -0.3536033
000130 bf 95 c8 bd 1f 8a 0e 3f 16 8c 5d 3e dc 0e 29 bf
       -0.09794187 0.55679506 0.2163547 -0.660383
000140 3c 40 01 3f 94 b9 f4 be 8c 36 b2 3d 5c dd ac be
       0.5048864 -0.47797835 0.0870181 -0.33762634
000150 d7 82 cf 3e 0c bf 88 be 70 14 1d bf d4 57 8a 3e
       0.4052951 -0.26708257 -0.6135931 0.27020133
000160 60 f6 81 be 62 bd ad be 1e e0 dd be e8 0b 00 bf
       -0.25383282 -0.3393355 -0.4333505 -0.5001817
000170 d7 7b 00 be 9d 02 0e bf 81 f0 f0 be 56 1d 07 bf
       -0.12547241 -0.5547274 -0.4705849 -0.5277914
000180 d4 ed 2d be 1e 0d bf 3e 1f 65 97 be c0 d6 0d 3e
       -0.16985255 0.37314695 -0.29569337 0.13851452
000190 c7 1c d0 be 6b d3 1c 3f d8 9c ba 3e 7f cd c6 bd
       -0.40646955 0.612601 0.36447787 -0.09707164
0001a0 07 b8 2b bf 65 4f cf be b7 a9 1f 3e 35 8d 2e 3f
       -0.6707768 -0.4049026 0.15592085 0.68184215
0001b0 cb 84 f8 3d 1f d9 ea be f7 b6 bf bc eb 28 cf 3d
       0.12134703 -0.45868775 -0.023402674 0.10115226
0001c0 d1 93 b6 be e3 fc ff 3e 54 6f 14 be f8 e7 38 bf
       -0.3565965 0.49997625 -0.14495593 -0.72228956
0001d0 53 ad 39 3e 49 9c 79 3f 68 5d 80 3f be 11 8a 3f
       0.18132524 0.975041 1.0028505 1.0786664
0001e0 cc 33 b5 be d3 f1 e6 3e 1a 70 f9 3e c7 5f 22 be
       -0.3539108 0.45106372 0.4871834 -0.15856849
0001f0 db 3c 41 3f c3 df ee 3e f5 5f 4a 3f 20 a5 57 3f
       0.75483483 0.46655092 0.7905267 0.84236336
000200 78 66 1b 3f 9f fd aa 3f
       0.6070323 1.3358649

weight f4 [10, 13]
000000 a6 ad b8 be 41 f8 94 3e d6 86 2c 3f ed 18 ae be
       -0.36069983 0.29095653 0.67393243 -0.34003392
000010 d3 6e 26 3f a4 07 1a 3f e3 e8 16 bf 06 de c6 3d
       0.65012854 0.6016791 -0.58949107 0.09710316
000020 3f 09 d5 3e 36 b2 69 3e 1c 35 18 be 1a da 6e be
       0.41608617 0.22821888 -0.1486401 -0.23325387
000030 54 08 39 bf 67 73 c6 bd 43 e9 ca be b3 a5 a5 be
       -0.7227833 -0.0968998 -0.3963109 -0.3235298
000040 19 8e 58 3f c6 b2 b4 be 35 cf 63 be 7a 11 12 bf
       0.84591824 -0.35292643 -0.22247012 -0.5705792
000050 89 42 8c bf 8d 15 43 be ca 27 f6 be 3f 68 5b bf
       -1.0957805 -0.1905119 -0.48077232 -0.8570594
000060 00 b6 1c be 94 de 85 bf d7 9e d2 bf 20 e0 61 bf
       -0.15303802 -1.045855 -1.6454724 -0.8823261
000070 00 54 a3 bf f0 0b 92 3f eb b8 2a bf 5b 4e ce bf
       -1.276001 1.1409893 -0.6668841 -1.6117662
000080 3b e9 32 bf e8 80 8a bf f4 b7 c5 bf 0b 03 8f bf
       -0.6988713 -1.0820589 -1.5446763 -1.1172804
000090 88 aa 04 bf eb 68 8e bf f0 8e 6e bf 66 38 6e be
       -0.5182271 -1.1125768 -0.93186855 -0.23263702
0000a0 2f bb 5b be 5e 0a 64 bd ed f7 0d bf cc 45 f1 3e
       -0.21458124 -0.05567395 -0.5545643 0.47123563
0000b0 9e da 41 bf a1 54 9b 3e 1c 6d 3e bf 6f 44 aa 3e
       -0.7572421 0.30338004 -0.7438524 0.33255336
0000c0 ae db 4d 3e a7 fc 3b be 30 23 46 be 27 88 67 3e
       0.20103332 -0.18358098 -0.1934936 0.22610532
0000d0 de fc 9f be 26 97 d4 3c 00 ab b1 be 83 d5 30 3f
       -0.3124761 0.02595098 -0.34700775 0.69075793
0000e0 6d 00 66 3e d1 a8 c2 be 55 23 1d bf 84 ad e6 3e
       0.224611 -0.38019422 -0.6138204 0.45054257
0000f0 02 f0 2c 3f 31 9a a5 be 0f 72 9e 3e 90 64 76 3d
       0.6755372 -0.323442 0.30946395 0.060154498
000100 10 fb 2f bf be 33 00 be 7b 69 77 3e be 02 61 be
       -0.68742466 -0.12519738 0.24161331 -0.21973702
000110 48 b1 20 3f 09 8c fe be ca 4d 41 bf 0e b8 be bd
       0.6277051 -0.49716213 -0.7550932 -0.093124494
000120 67 c4 17 3e 6f 86 25 3e ee f1 30 3e bc 9d 18 3f
       0.14821015 0.16164564 0.17279789 0.59615684
000130 14 2a f8 3e c1 87 6c 3e e3 3a 6e be 89 a0 cf 3e
       0.48469603 0.23098661 -0.23264651 0.40552166
000140 f8 91 7d bd da 1c 1e 3f 59 52 61 3e 3a 10 69 3e
       -0.061906785 0.61762774 0.2200407 0.22760096
000150 32 67 14 3f d3 b0 92 3d 13 5b ed bd ce 28 05 bf
       0.57969964 0.07162633 -0.11589637 -0.5201539
000160 ba 0d c8 3e 5f ad 4f 3e 12 c4 a0 bd e7 ef bc be
       0.39072973 0.2028098 -0.078498974 -0.3690178
000170 17 61 26 bf fa 4f e1 be 77 41 14 3f 66 71 12 3e
       -0.649919 -0.4400633 0.5791239 0.1430107
000180 98 ca ac 3e d5 cb 1b bf be dd cd be a9 d7 f9 be
       0.33748317 -0.608579 -0.40208238 -0.48797348
000190 90 a9 4c 3e 81 23 56 3e 1a 11 1b bf 16 41 27 bf
       0.19986558 0.20911981 -0.6057297 -0.6533369
0001a0 e1 fc 9e 3e e4 8c bc be 37 49 b6 3e aa d4 13 bf
       0.31052306 -0.3682624 0.35602733 -0.57746375
0001b0 f1 64 1a bf 30 01 34 bf 08 e1 4a be 25 2e 22 bf
       -0.60310274 -0.7031431 -0.19812405 -0.6335166
0001c0 52 6b 96 3e 1b be 2e bf fd 9c ff be 89 f0 34 bd
       0.29378754 -0.6825883 -0.4992446 -0.044174705
0001d0 1b 4c 59 be eb d3 53 bf 50 d1 0a bf 8b 57 14 3d
       -0.21220438 -0.82745236 -0.54225636 0.0362163
0001e0 f6 ee e2 3d 4e dc c2 3d 6d 60 c2 be 16 74 34 be
       0.110807344 0.09514676 -0.37964192 -0.17622408
0001f0 71 cb 06 bf ec a3 9f bd af 6d a5 be 19 0f 70 be
       -0.52654177 -0.077949375 -0.32310244 -0.2344326
000200 cf a6 b4 3d 21 1c 41 bf
       0.08820879 -0.75433546

bias f4 [10]
000000 64 81 a2 be ae ad f5 3e 12 5c 91 be a6 e9 6f be
       -0.31739342 0.4798407 -0.28390557 -0.23428974
000010 86 07 83 3e 17 37 0a 3e 5d c0 a8 3e 24 1a 8d 3e
       0.25591677 0.13497578 0.32959262 0.27559006
000020 d2 ab 83 be eb 9a 05 3e
       -0.25717026 0.13047378

weight f4 [10, 10]
000000 ab d8 b6 be 8c 77 cf 3e fc b8 72 bf 6f 58 ef be
       -0.3571218 0.40520895 -0.94813514 -0.46747157
000010 56 10 39 be ef 20 33 bf 4e f1 af be 9c 76 bd 3d
       -0.18072638 -0.6997213 -0.34363788 0.092511386
000020 25 be 3f bf 57 4c c2 be 05 24 72 be ab 0f 70 3f
       -0.7489951 -0.37948868 -0.23646553 0.9377391
000030 7f ae a2 be 61 f2 d0 3e 1f a2 f5 be 86 0d 20 bf
       -0.31773755 0.4080992 -0.4797525 -0.62520635
000040 e4 0e db 3e f8 d0 bd 3e 33 c9 05 3f 5f b5 91 3f
       0.42784798 0.37073493 0.5226013 1.1383475
000050 c8 e4 40 bf 2f 54 51 bf 4d 09 e5 be 52 1a 33 3c
       -0.7534909 -0.8176908 -0.44733658 0.010931568
000060 ec 0f 3e be 31 c5 77 3e 76 be ab 3d 1c ee 0c bf
       -0.18560761 0.24196316 0.08385937 -0.55050826
000070 aa 2a 47 3c a7 d9 95 be 1e 71 36 3f 9c d7 54 be
       0.012156168 -0.29267618 0.71266353 -0.20785373
000080 51 69 6c be 9c 30 c6 3d a3 2a 61 be 0b 41 3b 3e
       -0.2308705 0.0967724 -0.21988921 0.1828653
000090 a5 37 2d 3f 41 70 d6 be 48 dd 13 3e 00 29 58 bf
       0.6766303 -0.41882518 0.14439881 -0.8443756
0000a0 94 97 22 bf f3 18 20 3f f7 32 4f 3f 6d 48 ea 3c
       -0.6351254 0.6253807 0.8093714 0.028598988
0000b0 bb e8 64 bd 06 53 ff bd 48 9e dd be e0 34 8b be
       -0.05588601 -0.12467007 -0.43284822 -0.27188778
0000c0 2c 65 7b 3e df 28 8a be 1b ad 18 3c cf b2 46 3e
       0.24550313 -0.26984307 0.009318615 0.19404148
0000d0 1a 75 cd bb c5 14 cf bd c3 30 b5 be c0 de 8c 3e
       -0.006270063 -0.10111383 -0.35388765 0.27513695
0000e0 27 26 24 3f 89 a0 f5 be 0e 4f c3 bd bd d8 54 3f
       0.64120716 -0.4797404 -0.09536563 0.83143216
0000f0 fc 3f a0 bd 45 85 25 3e ad ad 41 3e 8a 96 91 3e
       -0.07824704 0.1616412 0.18913908 0.28435165
000100 14 cc eb be f3 97 29 3d 29 7c a3 3e 96 67 30 3f
       -0.46054137 0.041404676 0.31930664 0.6890806
000110 90 cc 08 bf 70 55 aa 3e db 5e cd 3e 6e 71 32 be
       -0.5343714 0.3326831 0.4011143 -0.17426082
000120 53 df 28 3f 53 25 3b 3e a8 f2 92 be 31 e1 14 3e
       0.65965766 0.18275957 -0.28700757 0.14539029
000130 fb 7c 73 be 69 09 d8 bd d3 d8 07 be a4 14 90 3f
       -0.23778145 -0.1054867 -0.13266306 1.1256299
000140 ec 38 a7 3e 97 b3 6a bf 60 9c 55 bf f9 27 22 3f
       0.32660615 -0.9168028 -0.83441734 0.63342243
000150 88 70 2b 3b 19 06 86 3e 8e fe 21 3e 1c a1 12 3c
       0.0026159603 0.26176527 0.15819761 0.008949544
000160 62 10 09 be 4f 2c c9 be 3b f4 36 bd 97 70 1c bf
       -0.13385156 -0.39291617 -0.04466651 -0.611093
000170 e6 10 4a 3f 3c c4 48 bf bd 14 11 3f e6 d7 3b bf
       0.78932035 -0.7842443 0.5667227 -0.7337631
000180 47 b1 eb 3e 7a 15 55 3e cd 62 3c 3f 5d 89 c6 3e
       0.4603369 0.20808974 0.7358826 0.38776675

weight f4 [10, 10]
000000 42 9d 6d bd fb 8e 1a 3f c9 d3 d7 3d 36 dc ca be
       -0.0580113 0.6037442 0.10538442 -0.39621133
000010 20 fd 81 3d 91 10 30 bd e5 35 4f be 6c 2c a7 be
       0.06347108 -0.04298455 -0.20235403 -0.3265108
000020 05 39 13 3f 60 ab 39 3f fb 1f b4 3d ef ee 27 bf
       0.5750888 0.7252712 0.08795162 -0.6559896
000030 30 8b a6 bc 50 76 e0 bb 01 2f 41 3f 64 9b a5 3e
       -0.020330042 -0.0068500414 0.7546235 0.32345116
000040 fd 20 43 3f 5c b7 19 be 52 a3 1a 3f 15 21 44 bf
       0.7622221 -0.15011352 0.6040546 -0.7661298
000050 b7 16 54 3e 9b 8f e2 3e 45 26 c8 bd fc d4 01 bf
       0.2071179 0.44250187 -0.09772924 -0.50715613
000060 19 bf a7 be 74 30 14 bf a0 c0 60 be af 88 c8 3e
       -0.32762983 -0.57886434 -0.2194848 0.3916678
000070 95 b1 f6 be c1 3d 1f be 43 cd 23 bd 8d bc 4a 3f
       -0.4818236 -0.15550901 -0.039990675 0.79193956
000080 9c 8b 13 3f 58 7e 28 bf d6 82 0b bd 91 2d 63 be
       0.576349 -0.65817785 -0.03406032 -0.22185351
000090 9d cb 82 be 14 dd 23 bf c2 d5 b1 be 02 5c 9d 3f
       -0.2554597 -0.64009213 -0.34733397 1.2293704
0000a0 48 36 e5 be 1c 16 8a bf 80 32 91 bf 6d 06 1c 3f
       -0.44767976 -1.0787997 -1.1343536 0.60947305
0000b0 e7 3f 27 3f e5 0d 02 bf 6a 90 e7 3e ab 63 22 bf
       0.6533188 -0.5080245 0.45227367 -0.6343333
0000c0 68 7e 50 be db 94 7e bf 5e 3f e3 3d 6a 44 06 3f
       -0.2036072 -0.99445885 0.11096071 0.5244814
0000d0 4c 83 16 bf 69 0a a4 3e 87 4b d7 be c4 4f 5a bd
       -0.58794093 0.32039192 -0.4204981 -0.053298727
0000e0 17 db bb 3e d6 2b 1f 3f 99 86 0b 3f 7e 45 1c 3f
       0.3669059 0.62176263 0.54502255 0.61043537
0000f0 63 56 1c 3f 5b 82 75 bd e6 ad ca be 15 5a 05 bf
       0.61069316 -0.05993877 -0.395858 -0.5209058
000100 34 5a e1 3e 91 70 15 bf db fa 19 3f 97 ce 0c 3e
       0.44014132 -0.5837489 0.601484 0.13750683
000110 b3 59 3d bf 6f 59 89 bf f2 af bf 3e ef e6 27 3f
       -0.73964995 -1.0730418 0.37438923 0.6558675
000120 a5 18 cc 3e 20 d8 8d 3e f1 ac 4d bc 32 a6 01 bd
       0.39862552 0.27703953 -0.0125534395 -0.031652637
000130 50 ff 0c 3e 2b e4 95 be 12 b8 06 3f b3 a9 36 bf
       0.13769269 -0.2927564 0.5262462 -0.7135269
000140 a4 a7 0b 3e fb 8e 68 3f aa 61 ec bd 41 15 28 bf
       0.13638169 0.9084317 -0.115420654 -0.6565743
000150 40 4d 23 be 08 87 46 bd 0c 4a f8 be ca 9e d6 ba
       -0.15947437 -0.04846862 -0.48493993 -0.0016374227
000160 02 7b 2e 3f 03 23 82 3f 61 ae 1c 3f 74 5e 8c bf
       0.68156445 1.0166935 0.6120358 -1.0966325
000170 1a 10 7a 3d 2f 5d d7 3e d4 91 23 bf 37 07 32 bf
       0.061050512 0.4206328 -0.6389439 -0.6954226
000180 52 b5 0e 3f 14 5a c1 3e 24 8e 78 3e 88 e2 65 bf
       0.5574542 0.37764037 0.24272972 -0.89798784
